{"format": "graph-model", "generatedBy": "2.7.0", "convertedBy": "TensorFlow.js Converter v3.15.0", "signature": {"inputs": {"input_1": {"name": "input_1:0", "dtype": "DT_FLOAT", "tensorShape": {"dim": [{"size": "-1"}, {"size": "256"}, {"size": "256"}, {"size": "3"}]}}}, "outputs": {"conv2d_transpose_7": {"name": "Identity:0", "dtype": "DT_FLOAT", "tensorShape": {"dim": [{"size": "-1"}, {"size": "256"}, {"size": "256"}, {"size": "3"}]}}}}, "modelTopology": {"node": [{"name": "StatefulPartitionedCall/model/conv2d_transpose_7/strided_slice/stack", "op": "Const", "attr": {"value": {"tensor": {"dtype": "DT_INT32", "tensorShape": {"dim": [{"size": "1"}]}}}, "dtype": {"type": "DT_INT32"}}}, {"name": "StatefulPartitionedCall/model/conv2d_transpose_7/strided_slice/stack_1", "op": "Const", "attr": {"value": {"tensor": {"dtype": "DT_INT32", "tensorShape": {"dim": [{"size": "1"}]}}}, "dtype": {"type": "DT_INT32"}}}, {"name": "StatefulPartitionedCall/model/conv2d_transpose_7/strided_slice/stack_2", "op": "Const", "attr": {"value": {"tensor": {"dtype": "DT_INT32", "tensorShape": {"dim": [{"size": "1"}]}}}, "dtype": {"type": "DT_INT32"}}}, {"name": "StatefulPartitionedCall/model/conv2d_transpose_7/stack/1", "op": "Const", "attr": {"dtype": {"type": "DT_INT32"}, "value": {"tensor": {"dtype": "DT_INT32", "tensorShape": {}}}}}, {"name": "StatefulPartitionedCall/model/conv2d_transpose_7/stack/2", "op": "Const", "attr": {"dtype": {"type": "DT_INT32"}, "value": {"tensor": {"dtype": "DT_INT32", "tensorShape": {}}}}}, {"name": "StatefulPartitionedCall/model/conv2d_transpose_7/stack/3", "op": "Const", "attr": {"value": {"tensor": {"dtype": "DT_INT32", "tensorShape": {}}}, "dtype": {"type": "DT_INT32"}}}, {"name": "StatefulPartitionedCall/model/conv2d_transpose_7/conv2d_transpose/ReadVariableOp", "op": "Const", "attr": {"value": {"tensor": {"dtype": "DT_FLOAT", "tensorShape": {"dim": [{"size": "4"}, {"size": "4"}, {"size": "3"}, {"size": "64"}]}}}, "dtype": {"type": "DT_FLOAT"}}}, {"name": "StatefulPartitionedCall/model/sequential_14/layer_normalization_13/Reshape/shape/0", "op": "Const", "attr": {"value": {"tensor": {"dtype": "DT_INT32", "tensorShape": {}}}, "dtype": {"type": "DT_INT32"}}}, {"name": "StatefulPartitionedCall/model/sequential_14/layer_normalization_13/strided_slice_3/stack", "op": "Const", "attr": {"value": {"tensor": {"dtype": "DT_INT32", "tensorShape": {"dim": [{"size": "1"}]}}}, "dtype": {"type": "DT_INT32"}}}, {"name": "StatefulPartitionedCall/model/sequential_14/layer_normalization_13/strided_slice_3/stack_1", "op": "Const", "attr": {"dtype": {"type": "DT_INT32"}, "value": {"tensor": {"dtype": "DT_INT32", "tensorShape": {"dim": [{"size": "1"}]}}}}}, {"name": "StatefulPartitionedCall/model/sequential_14/layer_normalization_13/strided_slice_3/stack_2", "op": "Const", "attr": {"dtype": {"type": "DT_INT32"}, "value": {"tensor": {"dtype": "DT_INT32", "tensorShape": {"dim": [{"size": "1"}]}}}}}, {"name": "StatefulPartitionedCall/model/sequential_14/layer_normalization_13/Reshape/shape/3", "op": "Const", "attr": {"value": {"tensor": {"dtype": "DT_INT32", "tensorShape": {}}}, "dtype": {"type": "DT_INT32"}}}, {"name": "StatefulPartitionedCall/model/sequential_14/layer_normalization_13/ones/Const", "op": "Const", "attr": {"value": {"tensor": {"dtype": "DT_FLOAT", "tensorShape": {}}}, "dtype": {"type": "DT_FLOAT"}}}, {"name": "StatefulPartitionedCall/model/sequential_14/layer_normalization_13/strided_slice/stack", "op": "Const", "attr": {"dtype": {"type": "DT_INT32"}, "value": {"tensor": {"dtype": "DT_INT32", "tensorShape": {"dim": [{"size": "1"}]}}}}}, {"name": "StatefulPartitionedCall/model/sequential_14/layer_normalization_13/strided_slice/stack_1", "op": "Const", "attr": {"dtype": {"type": "DT_INT32"}, "value": {"tensor": {"dtype": "DT_INT32", "tensorShape": {"dim": [{"size": "1"}]}}}}}, {"name": "StatefulPartitionedCall/model/sequential_14/layer_normalization_13/strided_slice/stack_2", "op": "Const", "attr": {"value": {"tensor": {"dtype": "DT_INT32", "tensorShape": {"dim": [{"size": "1"}]}}}, "dtype": {"type": "DT_INT32"}}}, {"name": "StatefulPartitionedCall/model/sequential_14/layer_normalization_13/strided_slice_1/stack", "op": "Const", "attr": {"value": {"tensor": {"dtype": "DT_INT32", "tensorShape": {"dim": [{"size": "1"}]}}}, "dtype": {"type": "DT_INT32"}}}, {"name": "StatefulPartitionedCall/model/sequential_14/layer_normalization_13/strided_slice_1/stack_1", "op": "Const", "attr": {"value": {"tensor": {"dtype": "DT_INT32", "tensorShape": {"dim": [{"size": "1"}]}}}, "dtype": {"type": "DT_INT32"}}}, {"name": "StatefulPartitionedCall/model/sequential_14/layer_normalization_13/strided_slice_1/stack_2", "op": "Const", "attr": {"dtype": {"type": "DT_INT32"}, "value": {"tensor": {"dtype": "DT_INT32", "tensorShape": {"dim": [{"size": "1"}]}}}}}, {"name": "StatefulPartitionedCall/model/sequential_14/layer_normalization_13/strided_slice_2/stack", "op": "Const", "attr": {"value": {"tensor": {"dtype": "DT_INT32", "tensorShape": {"dim": [{"size": "1"}]}}}, "dtype": {"type": "DT_INT32"}}}, {"name": "StatefulPartitionedCall/model/sequential_14/layer_normalization_13/strided_slice_2/stack_1", "op": "Const", "attr": {"value": {"tensor": {"dtype": "DT_INT32", "tensorShape": {"dim": [{"size": "1"}]}}}, "dtype": {"type": "DT_INT32"}}}, {"name": "StatefulPartitionedCall/model/sequential_14/layer_normalization_13/strided_slice_2/stack_2", "op": "Const", "attr": {"dtype": {"type": "DT_INT32"}, "value": {"tensor": {"dtype": "DT_INT32", "tensorShape": {"dim": [{"size": "1"}]}}}}}, {"name": "StatefulPartitionedCall/model/sequential_14/layer_normalization_13/zeros/Const", "op": "Const", "attr": {"dtype": {"type": "DT_FLOAT"}, "value": {"tensor": {"dtype": "DT_FLOAT", "tensorShape": {}}}}}, {"name": "StatefulPartitionedCall/model/sequential_14/layer_normalization_13/Const", "op": "Const", "attr": {"value": {"tensor": {"dtype": "DT_FLOAT", "tensorShape": {"dim": [{}]}}}, "dtype": {"type": "DT_FLOAT"}}}, {"name": "StatefulPartitionedCall/model/sequential_14/layer_normalization_13/Const_1", "op": "Const", "attr": {"value": {"tensor": {"dtype": "DT_FLOAT", "tensorShape": {"dim": [{}]}}}, "dtype": {"type": "DT_FLOAT"}}}, {"name": "StatefulPartitionedCall/model/sequential_14/conv2d_transpose_6/strided_slice/stack", "op": "Const", "attr": {"value": {"tensor": {"dtype": "DT_INT32", "tensorShape": {"dim": [{"size": "1"}]}}}, "dtype": {"type": "DT_INT32"}}}, {"name": "StatefulPartitionedCall/model/sequential_14/conv2d_transpose_6/strided_slice/stack_1", "op": "Const", "attr": {"dtype": {"type": "DT_INT32"}, "value": {"tensor": {"dtype": "DT_INT32", "tensorShape": {"dim": [{"size": "1"}]}}}}}, {"name": "StatefulPartitionedCall/model/sequential_14/conv2d_transpose_6/strided_slice/stack_2", "op": "Const", "attr": {"dtype": {"type": "DT_INT32"}, "value": {"tensor": {"dtype": "DT_INT32", "tensorShape": {"dim": [{"size": "1"}]}}}}}, {"name": "StatefulPartitionedCall/model/sequential_14/conv2d_transpose_6/stack/1", "op": "Const", "attr": {"value": {"tensor": {"dtype": "DT_INT32", "tensorShape": {}}}, "dtype": {"type": "DT_INT32"}}}, {"name": "StatefulPartitionedCall/model/sequential_14/conv2d_transpose_6/stack/2", "op": "Const", "attr": {"dtype": {"type": "DT_INT32"}, "value": {"tensor": {"dtype": "DT_INT32", "tensorShape": {}}}}}, {"name": "StatefulPartitionedCall/model/sequential_14/conv2d_transpose_6/stack/3", "op": "Const", "attr": {"dtype": {"type": "DT_INT32"}, "value": {"tensor": {"dtype": "DT_INT32", "tensorShape": {}}}}}, {"name": "StatefulPartitionedCall/model/sequential_14/conv2d_transpose_6/conv2d_transpose/ReadVariableOp", "op": "Const", "attr": {"dtype": {"type": "DT_FLOAT"}, "value": {"tensor": {"dtype": "DT_FLOAT", "tensorShape": {"dim": [{"size": "4"}, {"size": "4"}, {"size": "32"}, {"size": "128"}]}}}}}, {"name": "StatefulPartitionedCall/model/sequential_13/layer_normalization_12/Reshape/shape/0", "op": "Const", "attr": {"dtype": {"type": "DT_INT32"}, "value": {"tensor": {"dtype": "DT_INT32", "tensorShape": {}}}}}, {"name": "StatefulPartitionedCall/model/sequential_13/layer_normalization_12/strided_slice_3/stack", "op": "Const", "attr": {"dtype": {"type": "DT_INT32"}, "value": {"tensor": {"dtype": "DT_INT32", "tensorShape": {"dim": [{"size": "1"}]}}}}}, {"name": "StatefulPartitionedCall/model/sequential_13/layer_normalization_12/strided_slice_3/stack_1", "op": "Const", "attr": {"dtype": {"type": "DT_INT32"}, "value": {"tensor": {"dtype": "DT_INT32", "tensorShape": {"dim": [{"size": "1"}]}}}}}, {"name": "StatefulPartitionedCall/model/sequential_13/layer_normalization_12/strided_slice_3/stack_2", "op": "Const", "attr": {"dtype": {"type": "DT_INT32"}, "value": {"tensor": {"dtype": "DT_INT32", "tensorShape": {"dim": [{"size": "1"}]}}}}}, {"name": "StatefulPartitionedCall/model/sequential_13/layer_normalization_12/Reshape/shape/3", "op": "Const", "attr": {"dtype": {"type": "DT_INT32"}, "value": {"tensor": {"dtype": "DT_INT32", "tensorShape": {}}}}}, {"name": "StatefulPartitionedCall/model/sequential_13/layer_normalization_12/ones/Const", "op": "Const", "attr": {"value": {"tensor": {"dtype": "DT_FLOAT", "tensorShape": {}}}, "dtype": {"type": "DT_FLOAT"}}}, {"name": "StatefulPartitionedCall/model/sequential_13/layer_normalization_12/strided_slice/stack", "op": "Const", "attr": {"dtype": {"type": "DT_INT32"}, "value": {"tensor": {"dtype": "DT_INT32", "tensorShape": {"dim": [{"size": "1"}]}}}}}, {"name": "StatefulPartitionedCall/model/sequential_13/layer_normalization_12/strided_slice/stack_1", "op": "Const", "attr": {"dtype": {"type": "DT_INT32"}, "value": {"tensor": {"dtype": "DT_INT32", "tensorShape": {"dim": [{"size": "1"}]}}}}}, {"name": "StatefulPartitionedCall/model/sequential_13/layer_normalization_12/strided_slice/stack_2", "op": "Const", "attr": {"value": {"tensor": {"dtype": "DT_INT32", "tensorShape": {"dim": [{"size": "1"}]}}}, "dtype": {"type": "DT_INT32"}}}, {"name": "StatefulPartitionedCall/model/sequential_13/layer_normalization_12/strided_slice_1/stack", "op": "Const", "attr": {"value": {"tensor": {"dtype": "DT_INT32", "tensorShape": {"dim": [{"size": "1"}]}}}, "dtype": {"type": "DT_INT32"}}}, {"name": "StatefulPartitionedCall/model/sequential_13/layer_normalization_12/strided_slice_1/stack_1", "op": "Const", "attr": {"dtype": {"type": "DT_INT32"}, "value": {"tensor": {"dtype": "DT_INT32", "tensorShape": {"dim": [{"size": "1"}]}}}}}, {"name": "StatefulPartitionedCall/model/sequential_13/layer_normalization_12/strided_slice_1/stack_2", "op": "Const", "attr": {"value": {"tensor": {"dtype": "DT_INT32", "tensorShape": {"dim": [{"size": "1"}]}}}, "dtype": {"type": "DT_INT32"}}}, {"name": "StatefulPartitionedCall/model/sequential_13/layer_normalization_12/strided_slice_2/stack", "op": "Const", "attr": {"dtype": {"type": "DT_INT32"}, "value": {"tensor": {"dtype": "DT_INT32", "tensorShape": {"dim": [{"size": "1"}]}}}}}, {"name": "StatefulPartitionedCall/model/sequential_13/layer_normalization_12/strided_slice_2/stack_1", "op": "Const", "attr": {"dtype": {"type": "DT_INT32"}, "value": {"tensor": {"dtype": "DT_INT32", "tensorShape": {"dim": [{"size": "1"}]}}}}}, {"name": "StatefulPartitionedCall/model/sequential_13/layer_normalization_12/strided_slice_2/stack_2", "op": "Const", "attr": {"value": {"tensor": {"dtype": "DT_INT32", "tensorShape": {"dim": [{"size": "1"}]}}}, "dtype": {"type": "DT_INT32"}}}, {"name": "StatefulPartitionedCall/model/sequential_13/layer_normalization_12/zeros/Const", "op": "Const", "attr": {"value": {"tensor": {"dtype": "DT_FLOAT", "tensorShape": {}}}, "dtype": {"type": "DT_FLOAT"}}}, {"name": "StatefulPartitionedCall/model/sequential_13/layer_normalization_12/Const", "op": "Const", "attr": {"dtype": {"type": "DT_FLOAT"}, "value": {"tensor": {"dtype": "DT_FLOAT", "tensorShape": {"dim": [{}]}}}}}, {"name": "StatefulPartitionedCall/model/sequential_13/layer_normalization_12/Const_1", "op": "Const", "attr": {"value": {"tensor": {"dtype": "DT_FLOAT", "tensorShape": {"dim": [{}]}}}, "dtype": {"type": "DT_FLOAT"}}}, {"name": "StatefulPartitionedCall/model/sequential_13/conv2d_transpose_5/strided_slice/stack", "op": "Const", "attr": {"dtype": {"type": "DT_INT32"}, "value": {"tensor": {"dtype": "DT_INT32", "tensorShape": {"dim": [{"size": "1"}]}}}}}, {"name": "StatefulPartitionedCall/model/sequential_13/conv2d_transpose_5/strided_slice/stack_1", "op": "Const", "attr": {"dtype": {"type": "DT_INT32"}, "value": {"tensor": {"dtype": "DT_INT32", "tensorShape": {"dim": [{"size": "1"}]}}}}}, {"name": "StatefulPartitionedCall/model/sequential_13/conv2d_transpose_5/strided_slice/stack_2", "op": "Const", "attr": {"dtype": {"type": "DT_INT32"}, "value": {"tensor": {"dtype": "DT_INT32", "tensorShape": {"dim": [{"size": "1"}]}}}}}, {"name": "StatefulPartitionedCall/model/sequential_13/conv2d_transpose_5/stack/1", "op": "Const", "attr": {"value": {"tensor": {"dtype": "DT_INT32", "tensorShape": {}}}, "dtype": {"type": "DT_INT32"}}}, {"name": "StatefulPartitionedCall/model/sequential_13/conv2d_transpose_5/stack/2", "op": "Const", "attr": {"dtype": {"type": "DT_INT32"}, "value": {"tensor": {"dtype": "DT_INT32", "tensorShape": {}}}}}, {"name": "StatefulPartitionedCall/model/sequential_13/conv2d_transpose_5/stack/3", "op": "Const", "attr": {"value": {"tensor": {"dtype": "DT_INT32", "tensorShape": {}}}, "dtype": {"type": "DT_INT32"}}}, {"name": "StatefulPartitionedCall/model/sequential_13/conv2d_transpose_5/conv2d_transpose/ReadVariableOp", "op": "Const", "attr": {"value": {"tensor": {"dtype": "DT_FLOAT", "tensorShape": {"dim": [{"size": "4"}, {"size": "4"}, {"size": "64"}, {"size": "256"}]}}}, "dtype": {"type": "DT_FLOAT"}}}, {"name": "StatefulPartitionedCall/model/sequential_12/layer_normalization_11/Reshape/shape/0", "op": "Const", "attr": {"value": {"tensor": {"dtype": "DT_INT32", "tensorShape": {}}}, "dtype": {"type": "DT_INT32"}}}, {"name": "StatefulPartitionedCall/model/sequential_12/layer_normalization_11/strided_slice_3/stack", "op": "Const", "attr": {"value": {"tensor": {"dtype": "DT_INT32", "tensorShape": {"dim": [{"size": "1"}]}}}, "dtype": {"type": "DT_INT32"}}}, {"name": "StatefulPartitionedCall/model/sequential_12/layer_normalization_11/strided_slice_3/stack_1", "op": "Const", "attr": {"value": {"tensor": {"dtype": "DT_INT32", "tensorShape": {"dim": [{"size": "1"}]}}}, "dtype": {"type": "DT_INT32"}}}, {"name": "StatefulPartitionedCall/model/sequential_12/layer_normalization_11/strided_slice_3/stack_2", "op": "Const", "attr": {"value": {"tensor": {"dtype": "DT_INT32", "tensorShape": {"dim": [{"size": "1"}]}}}, "dtype": {"type": "DT_INT32"}}}, {"name": "StatefulPartitionedCall/model/sequential_12/layer_normalization_11/Reshape/shape/3", "op": "Const", "attr": {"value": {"tensor": {"dtype": "DT_INT32", "tensorShape": {}}}, "dtype": {"type": "DT_INT32"}}}, {"name": "StatefulPartitionedCall/model/sequential_12/layer_normalization_11/ones/Const", "op": "Const", "attr": {"dtype": {"type": "DT_FLOAT"}, "value": {"tensor": {"dtype": "DT_FLOAT", "tensorShape": {}}}}}, {"name": "StatefulPartitionedCall/model/sequential_12/layer_normalization_11/strided_slice/stack", "op": "Const", "attr": {"value": {"tensor": {"dtype": "DT_INT32", "tensorShape": {"dim": [{"size": "1"}]}}}, "dtype": {"type": "DT_INT32"}}}, {"name": "StatefulPartitionedCall/model/sequential_12/layer_normalization_11/strided_slice/stack_1", "op": "Const", "attr": {"value": {"tensor": {"dtype": "DT_INT32", "tensorShape": {"dim": [{"size": "1"}]}}}, "dtype": {"type": "DT_INT32"}}}, {"name": "StatefulPartitionedCall/model/sequential_12/layer_normalization_11/strided_slice/stack_2", "op": "Const", "attr": {"value": {"tensor": {"dtype": "DT_INT32", "tensorShape": {"dim": [{"size": "1"}]}}}, "dtype": {"type": "DT_INT32"}}}, {"name": "StatefulPartitionedCall/model/sequential_12/layer_normalization_11/strided_slice_1/stack", "op": "Const", "attr": {"value": {"tensor": {"dtype": "DT_INT32", "tensorShape": {"dim": [{"size": "1"}]}}}, "dtype": {"type": "DT_INT32"}}}, {"name": "StatefulPartitionedCall/model/sequential_12/layer_normalization_11/strided_slice_1/stack_1", "op": "Const", "attr": {"value": {"tensor": {"dtype": "DT_INT32", "tensorShape": {"dim": [{"size": "1"}]}}}, "dtype": {"type": "DT_INT32"}}}, {"name": "StatefulPartitionedCall/model/sequential_12/layer_normalization_11/strided_slice_1/stack_2", "op": "Const", "attr": {"value": {"tensor": {"dtype": "DT_INT32", "tensorShape": {"dim": [{"size": "1"}]}}}, "dtype": {"type": "DT_INT32"}}}, {"name": "StatefulPartitionedCall/model/sequential_12/layer_normalization_11/strided_slice_2/stack", "op": "Const", "attr": {"value": {"tensor": {"dtype": "DT_INT32", "tensorShape": {"dim": [{"size": "1"}]}}}, "dtype": {"type": "DT_INT32"}}}, {"name": "StatefulPartitionedCall/model/sequential_12/layer_normalization_11/strided_slice_2/stack_1", "op": "Const", "attr": {"value": {"tensor": {"dtype": "DT_INT32", "tensorShape": {"dim": [{"size": "1"}]}}}, "dtype": {"type": "DT_INT32"}}}, {"name": "StatefulPartitionedCall/model/sequential_12/layer_normalization_11/strided_slice_2/stack_2", "op": "Const", "attr": {"value": {"tensor": {"dtype": "DT_INT32", "tensorShape": {"dim": [{"size": "1"}]}}}, "dtype": {"type": "DT_INT32"}}}, {"name": "StatefulPartitionedCall/model/sequential_12/layer_normalization_11/zeros/Const", "op": "Const", "attr": {"value": {"tensor": {"dtype": "DT_FLOAT", "tensorShape": {}}}, "dtype": {"type": "DT_FLOAT"}}}, {"name": "StatefulPartitionedCall/model/sequential_12/layer_normalization_11/Const", "op": "Const", "attr": {"value": {"tensor": {"dtype": "DT_FLOAT", "tensorShape": {"dim": [{}]}}}, "dtype": {"type": "DT_FLOAT"}}}, {"name": "StatefulPartitionedCall/model/sequential_12/layer_normalization_11/Const_1", "op": "Const", "attr": {"dtype": {"type": "DT_FLOAT"}, "value": {"tensor": {"dtype": "DT_FLOAT", "tensorShape": {"dim": [{}]}}}}}, {"name": "StatefulPartitionedCall/model/sequential_12/conv2d_transpose_4/strided_slice/stack", "op": "Const", "attr": {"value": {"tensor": {"dtype": "DT_INT32", "tensorShape": {"dim": [{"size": "1"}]}}}, "dtype": {"type": "DT_INT32"}}}, {"name": "StatefulPartitionedCall/model/sequential_12/conv2d_transpose_4/strided_slice/stack_1", "op": "Const", "attr": {"dtype": {"type": "DT_INT32"}, "value": {"tensor": {"dtype": "DT_INT32", "tensorShape": {"dim": [{"size": "1"}]}}}}}, {"name": "StatefulPartitionedCall/model/sequential_12/conv2d_transpose_4/strided_slice/stack_2", "op": "Const", "attr": {"value": {"tensor": {"dtype": "DT_INT32", "tensorShape": {"dim": [{"size": "1"}]}}}, "dtype": {"type": "DT_INT32"}}}, {"name": "StatefulPartitionedCall/model/sequential_12/conv2d_transpose_4/stack/1", "op": "Const", "attr": {"value": {"tensor": {"dtype": "DT_INT32", "tensorShape": {}}}, "dtype": {"type": "DT_INT32"}}}, {"name": "StatefulPartitionedCall/model/sequential_12/conv2d_transpose_4/stack/2", "op": "Const", "attr": {"value": {"tensor": {"dtype": "DT_INT32", "tensorShape": {}}}, "dtype": {"type": "DT_INT32"}}}, {"name": "StatefulPartitionedCall/model/sequential_12/conv2d_transpose_4/stack/3", "op": "Const", "attr": {"value": {"tensor": {"dtype": "DT_INT32", "tensorShape": {}}}, "dtype": {"type": "DT_INT32"}}}, {"name": "StatefulPartitionedCall/model/sequential_12/conv2d_transpose_4/conv2d_transpose/ReadVariableOp", "op": "Const", "attr": {"value": {"tensor": {"dtype": "DT_FLOAT", "tensorShape": {"dim": [{"size": "4"}, {"size": "4"}, {"size": "128"}, {"size": "512"}]}}}, "dtype": {"type": "DT_FLOAT"}}}, {"name": "StatefulPartitionedCall/model/sequential_11/layer_normalization_10/Reshape/shape/0", "op": "Const", "attr": {"dtype": {"type": "DT_INT32"}, "value": {"tensor": {"dtype": "DT_INT32", "tensorShape": {}}}}}, {"name": "StatefulPartitionedCall/model/sequential_11/layer_normalization_10/strided_slice_3/stack", "op": "Const", "attr": {"value": {"tensor": {"dtype": "DT_INT32", "tensorShape": {"dim": [{"size": "1"}]}}}, "dtype": {"type": "DT_INT32"}}}, {"name": "StatefulPartitionedCall/model/sequential_11/layer_normalization_10/strided_slice_3/stack_1", "op": "Const", "attr": {"value": {"tensor": {"dtype": "DT_INT32", "tensorShape": {"dim": [{"size": "1"}]}}}, "dtype": {"type": "DT_INT32"}}}, {"name": "StatefulPartitionedCall/model/sequential_11/layer_normalization_10/strided_slice_3/stack_2", "op": "Const", "attr": {"value": {"tensor": {"dtype": "DT_INT32", "tensorShape": {"dim": [{"size": "1"}]}}}, "dtype": {"type": "DT_INT32"}}}, {"name": "StatefulPartitionedCall/model/sequential_11/layer_normalization_10/Reshape/shape/3", "op": "Const", "attr": {"dtype": {"type": "DT_INT32"}, "value": {"tensor": {"dtype": "DT_INT32", "tensorShape": {}}}}}, {"name": "StatefulPartitionedCall/model/sequential_11/layer_normalization_10/ones/Const", "op": "Const", "attr": {"dtype": {"type": "DT_FLOAT"}, "value": {"tensor": {"dtype": "DT_FLOAT", "tensorShape": {}}}}}, {"name": "StatefulPartitionedCall/model/sequential_11/layer_normalization_10/strided_slice/stack", "op": "Const", "attr": {"value": {"tensor": {"dtype": "DT_INT32", "tensorShape": {"dim": [{"size": "1"}]}}}, "dtype": {"type": "DT_INT32"}}}, {"name": "StatefulPartitionedCall/model/sequential_11/layer_normalization_10/strided_slice/stack_1", "op": "Const", "attr": {"value": {"tensor": {"dtype": "DT_INT32", "tensorShape": {"dim": [{"size": "1"}]}}}, "dtype": {"type": "DT_INT32"}}}, {"name": "StatefulPartitionedCall/model/sequential_11/layer_normalization_10/strided_slice/stack_2", "op": "Const", "attr": {"value": {"tensor": {"dtype": "DT_INT32", "tensorShape": {"dim": [{"size": "1"}]}}}, "dtype": {"type": "DT_INT32"}}}, {"name": "StatefulPartitionedCall/model/sequential_11/layer_normalization_10/strided_slice_1/stack", "op": "Const", "attr": {"value": {"tensor": {"dtype": "DT_INT32", "tensorShape": {"dim": [{"size": "1"}]}}}, "dtype": {"type": "DT_INT32"}}}, {"name": "StatefulPartitionedCall/model/sequential_11/layer_normalization_10/strided_slice_1/stack_1", "op": "Const", "attr": {"dtype": {"type": "DT_INT32"}, "value": {"tensor": {"dtype": "DT_INT32", "tensorShape": {"dim": [{"size": "1"}]}}}}}, {"name": "StatefulPartitionedCall/model/sequential_11/layer_normalization_10/strided_slice_1/stack_2", "op": "Const", "attr": {"value": {"tensor": {"dtype": "DT_INT32", "tensorShape": {"dim": [{"size": "1"}]}}}, "dtype": {"type": "DT_INT32"}}}, {"name": "StatefulPartitionedCall/model/sequential_11/layer_normalization_10/strided_slice_2/stack", "op": "Const", "attr": {"value": {"tensor": {"dtype": "DT_INT32", "tensorShape": {"dim": [{"size": "1"}]}}}, "dtype": {"type": "DT_INT32"}}}, {"name": "StatefulPartitionedCall/model/sequential_11/layer_normalization_10/strided_slice_2/stack_1", "op": "Const", "attr": {"value": {"tensor": {"dtype": "DT_INT32", "tensorShape": {"dim": [{"size": "1"}]}}}, "dtype": {"type": "DT_INT32"}}}, {"name": "StatefulPartitionedCall/model/sequential_11/layer_normalization_10/strided_slice_2/stack_2", "op": "Const", "attr": {"dtype": {"type": "DT_INT32"}, "value": {"tensor": {"dtype": "DT_INT32", "tensorShape": {"dim": [{"size": "1"}]}}}}}, {"name": "StatefulPartitionedCall/model/sequential_11/layer_normalization_10/zeros/Const", "op": "Const", "attr": {"value": {"tensor": {"dtype": "DT_FLOAT", "tensorShape": {}}}, "dtype": {"type": "DT_FLOAT"}}}, {"name": "StatefulPartitionedCall/model/sequential_11/layer_normalization_10/Const", "op": "Const", "attr": {"value": {"tensor": {"dtype": "DT_FLOAT", "tensorShape": {"dim": [{}]}}}, "dtype": {"type": "DT_FLOAT"}}}, {"name": "StatefulPartitionedCall/model/sequential_11/layer_normalization_10/Const_1", "op": "Const", "attr": {"dtype": {"type": "DT_FLOAT"}, "value": {"tensor": {"dtype": "DT_FLOAT", "tensorShape": {"dim": [{}]}}}}}, {"name": "StatefulPartitionedCall/model/sequential_11/conv2d_transpose_3/strided_slice/stack", "op": "Const", "attr": {"dtype": {"type": "DT_INT32"}, "value": {"tensor": {"dtype": "DT_INT32", "tensorShape": {"dim": [{"size": "1"}]}}}}}, {"name": "StatefulPartitionedCall/model/sequential_11/conv2d_transpose_3/strided_slice/stack_1", "op": "Const", "attr": {"dtype": {"type": "DT_INT32"}, "value": {"tensor": {"dtype": "DT_INT32", "tensorShape": {"dim": [{"size": "1"}]}}}}}, {"name": "StatefulPartitionedCall/model/sequential_11/conv2d_transpose_3/strided_slice/stack_2", "op": "Const", "attr": {"dtype": {"type": "DT_INT32"}, "value": {"tensor": {"dtype": "DT_INT32", "tensorShape": {"dim": [{"size": "1"}]}}}}}, {"name": "StatefulPartitionedCall/model/sequential_11/conv2d_transpose_3/stack/1", "op": "Const", "attr": {"dtype": {"type": "DT_INT32"}, "value": {"tensor": {"dtype": "DT_INT32", "tensorShape": {}}}}}, {"name": "StatefulPartitionedCall/model/sequential_11/conv2d_transpose_3/stack/2", "op": "Const", "attr": {"value": {"tensor": {"dtype": "DT_INT32", "tensorShape": {}}}, "dtype": {"type": "DT_INT32"}}}, {"name": "StatefulPartitionedCall/model/sequential_11/conv2d_transpose_3/stack/3", "op": "Const", "attr": {"dtype": {"type": "DT_INT32"}, "value": {"tensor": {"dtype": "DT_INT32", "tensorShape": {}}}}}, {"name": "StatefulPartitionedCall/model/sequential_11/conv2d_transpose_3/conv2d_transpose/ReadVariableOp", "op": "Const", "attr": {"value": {"tensor": {"dtype": "DT_FLOAT", "tensorShape": {"dim": [{"size": "4"}, {"size": "4"}, {"size": "256"}, {"size": "512"}]}}}, "dtype": {"type": "DT_FLOAT"}}}, {"name": "StatefulPartitionedCall/model/sequential_10/layer_normalization_9/Reshape/shape/0", "op": "Const", "attr": {"value": {"tensor": {"dtype": "DT_INT32", "tensorShape": {}}}, "dtype": {"type": "DT_INT32"}}}, {"name": "StatefulPartitionedCall/model/sequential_10/layer_normalization_9/strided_slice_3/stack", "op": "Const", "attr": {"dtype": {"type": "DT_INT32"}, "value": {"tensor": {"dtype": "DT_INT32", "tensorShape": {"dim": [{"size": "1"}]}}}}}, {"name": "StatefulPartitionedCall/model/sequential_10/layer_normalization_9/strided_slice_3/stack_1", "op": "Const", "attr": {"dtype": {"type": "DT_INT32"}, "value": {"tensor": {"dtype": "DT_INT32", "tensorShape": {"dim": [{"size": "1"}]}}}}}, {"name": "StatefulPartitionedCall/model/sequential_10/layer_normalization_9/strided_slice_3/stack_2", "op": "Const", "attr": {"dtype": {"type": "DT_INT32"}, "value": {"tensor": {"dtype": "DT_INT32", "tensorShape": {"dim": [{"size": "1"}]}}}}}, {"name": "StatefulPartitionedCall/model/sequential_10/layer_normalization_9/Reshape/shape/3", "op": "Const", "attr": {"dtype": {"type": "DT_INT32"}, "value": {"tensor": {"dtype": "DT_INT32", "tensorShape": {}}}}}, {"name": "StatefulPartitionedCall/model/sequential_10/layer_normalization_9/ones/Const", "op": "Const", "attr": {"dtype": {"type": "DT_FLOAT"}, "value": {"tensor": {"dtype": "DT_FLOAT", "tensorShape": {}}}}}, {"name": "StatefulPartitionedCall/model/sequential_10/layer_normalization_9/strided_slice/stack", "op": "Const", "attr": {"dtype": {"type": "DT_INT32"}, "value": {"tensor": {"dtype": "DT_INT32", "tensorShape": {"dim": [{"size": "1"}]}}}}}, {"name": "StatefulPartitionedCall/model/sequential_10/layer_normalization_9/strided_slice/stack_1", "op": "Const", "attr": {"dtype": {"type": "DT_INT32"}, "value": {"tensor": {"dtype": "DT_INT32", "tensorShape": {"dim": [{"size": "1"}]}}}}}, {"name": "StatefulPartitionedCall/model/sequential_10/layer_normalization_9/strided_slice/stack_2", "op": "Const", "attr": {"value": {"tensor": {"dtype": "DT_INT32", "tensorShape": {"dim": [{"size": "1"}]}}}, "dtype": {"type": "DT_INT32"}}}, {"name": "StatefulPartitionedCall/model/sequential_10/layer_normalization_9/strided_slice_1/stack", "op": "Const", "attr": {"dtype": {"type": "DT_INT32"}, "value": {"tensor": {"dtype": "DT_INT32", "tensorShape": {"dim": [{"size": "1"}]}}}}}, {"name": "StatefulPartitionedCall/model/sequential_10/layer_normalization_9/strided_slice_1/stack_1", "op": "Const", "attr": {"value": {"tensor": {"dtype": "DT_INT32", "tensorShape": {"dim": [{"size": "1"}]}}}, "dtype": {"type": "DT_INT32"}}}, {"name": "StatefulPartitionedCall/model/sequential_10/layer_normalization_9/strided_slice_1/stack_2", "op": "Const", "attr": {"value": {"tensor": {"dtype": "DT_INT32", "tensorShape": {"dim": [{"size": "1"}]}}}, "dtype": {"type": "DT_INT32"}}}, {"name": "StatefulPartitionedCall/model/sequential_10/layer_normalization_9/strided_slice_2/stack", "op": "Const", "attr": {"dtype": {"type": "DT_INT32"}, "value": {"tensor": {"dtype": "DT_INT32", "tensorShape": {"dim": [{"size": "1"}]}}}}}, {"name": "StatefulPartitionedCall/model/sequential_10/layer_normalization_9/strided_slice_2/stack_1", "op": "Const", "attr": {"value": {"tensor": {"dtype": "DT_INT32", "tensorShape": {"dim": [{"size": "1"}]}}}, "dtype": {"type": "DT_INT32"}}}, {"name": "StatefulPartitionedCall/model/sequential_10/layer_normalization_9/strided_slice_2/stack_2", "op": "Const", "attr": {"value": {"tensor": {"dtype": "DT_INT32", "tensorShape": {"dim": [{"size": "1"}]}}}, "dtype": {"type": "DT_INT32"}}}, {"name": "StatefulPartitionedCall/model/sequential_10/layer_normalization_9/zeros/Const", "op": "Const", "attr": {"dtype": {"type": "DT_FLOAT"}, "value": {"tensor": {"dtype": "DT_FLOAT", "tensorShape": {}}}}}, {"name": "StatefulPartitionedCall/model/sequential_10/layer_normalization_9/Const", "op": "Const", "attr": {"dtype": {"type": "DT_FLOAT"}, "value": {"tensor": {"dtype": "DT_FLOAT", "tensorShape": {"dim": [{}]}}}}}, {"name": "StatefulPartitionedCall/model/sequential_10/layer_normalization_9/Const_1", "op": "Const", "attr": {"dtype": {"type": "DT_FLOAT"}, "value": {"tensor": {"dtype": "DT_FLOAT", "tensorShape": {"dim": [{}]}}}}}, {"name": "StatefulPartitionedCall/model/sequential_10/conv2d_transpose_2/strided_slice/stack", "op": "Const", "attr": {"dtype": {"type": "DT_INT32"}, "value": {"tensor": {"dtype": "DT_INT32", "tensorShape": {"dim": [{"size": "1"}]}}}}}, {"name": "StatefulPartitionedCall/model/sequential_10/conv2d_transpose_2/strided_slice/stack_1", "op": "Const", "attr": {"value": {"tensor": {"dtype": "DT_INT32", "tensorShape": {"dim": [{"size": "1"}]}}}, "dtype": {"type": "DT_INT32"}}}, {"name": "StatefulPartitionedCall/model/sequential_10/conv2d_transpose_2/strided_slice/stack_2", "op": "Const", "attr": {"dtype": {"type": "DT_INT32"}, "value": {"tensor": {"dtype": "DT_INT32", "tensorShape": {"dim": [{"size": "1"}]}}}}}, {"name": "StatefulPartitionedCall/model/sequential_10/conv2d_transpose_2/stack/1", "op": "Const", "attr": {"dtype": {"type": "DT_INT32"}, "value": {"tensor": {"dtype": "DT_INT32", "tensorShape": {}}}}}, {"name": "StatefulPartitionedCall/model/sequential_10/conv2d_transpose_2/stack/2", "op": "Const", "attr": {"dtype": {"type": "DT_INT32"}, "value": {"tensor": {"dtype": "DT_INT32", "tensorShape": {}}}}}, {"name": "StatefulPartitionedCall/model/sequential_10/conv2d_transpose_2/stack/3", "op": "Const", "attr": {"dtype": {"type": "DT_INT32"}, "value": {"tensor": {"dtype": "DT_INT32", "tensorShape": {}}}}}, {"name": "StatefulPartitionedCall/model/sequential_10/conv2d_transpose_2/conv2d_transpose/ReadVariableOp", "op": "Const", "attr": {"value": {"tensor": {"dtype": "DT_FLOAT", "tensorShape": {"dim": [{"size": "4"}, {"size": "4"}, {"size": "256"}, {"size": "512"}]}}}, "dtype": {"type": "DT_FLOAT"}}}, {"name": "StatefulPartitionedCall/model/sequential_9/layer_normalization_8/Reshape/shape/0", "op": "Const", "attr": {"value": {"tensor": {"dtype": "DT_INT32", "tensorShape": {}}}, "dtype": {"type": "DT_INT32"}}}, {"name": "StatefulPartitionedCall/model/sequential_9/layer_normalization_8/strided_slice_3/stack", "op": "Const", "attr": {"dtype": {"type": "DT_INT32"}, "value": {"tensor": {"dtype": "DT_INT32", "tensorShape": {"dim": [{"size": "1"}]}}}}}, {"name": "StatefulPartitionedCall/model/sequential_9/layer_normalization_8/strided_slice_3/stack_1", "op": "Const", "attr": {"dtype": {"type": "DT_INT32"}, "value": {"tensor": {"dtype": "DT_INT32", "tensorShape": {"dim": [{"size": "1"}]}}}}}, {"name": "StatefulPartitionedCall/model/sequential_9/layer_normalization_8/strided_slice_3/stack_2", "op": "Const", "attr": {"value": {"tensor": {"dtype": "DT_INT32", "tensorShape": {"dim": [{"size": "1"}]}}}, "dtype": {"type": "DT_INT32"}}}, {"name": "StatefulPartitionedCall/model/sequential_9/layer_normalization_8/Reshape/shape/3", "op": "Const", "attr": {"value": {"tensor": {"dtype": "DT_INT32", "tensorShape": {}}}, "dtype": {"type": "DT_INT32"}}}, {"name": "StatefulPartitionedCall/model/sequential_9/layer_normalization_8/ones/Const", "op": "Const", "attr": {"dtype": {"type": "DT_FLOAT"}, "value": {"tensor": {"dtype": "DT_FLOAT", "tensorShape": {}}}}}, {"name": "StatefulPartitionedCall/model/sequential_9/layer_normalization_8/strided_slice/stack", "op": "Const", "attr": {"dtype": {"type": "DT_INT32"}, "value": {"tensor": {"dtype": "DT_INT32", "tensorShape": {"dim": [{"size": "1"}]}}}}}, {"name": "StatefulPartitionedCall/model/sequential_9/layer_normalization_8/strided_slice/stack_1", "op": "Const", "attr": {"dtype": {"type": "DT_INT32"}, "value": {"tensor": {"dtype": "DT_INT32", "tensorShape": {"dim": [{"size": "1"}]}}}}}, {"name": "StatefulPartitionedCall/model/sequential_9/layer_normalization_8/strided_slice/stack_2", "op": "Const", "attr": {"dtype": {"type": "DT_INT32"}, "value": {"tensor": {"dtype": "DT_INT32", "tensorShape": {"dim": [{"size": "1"}]}}}}}, {"name": "StatefulPartitionedCall/model/sequential_9/layer_normalization_8/strided_slice_1/stack", "op": "Const", "attr": {"dtype": {"type": "DT_INT32"}, "value": {"tensor": {"dtype": "DT_INT32", "tensorShape": {"dim": [{"size": "1"}]}}}}}, {"name": "StatefulPartitionedCall/model/sequential_9/layer_normalization_8/strided_slice_1/stack_1", "op": "Const", "attr": {"dtype": {"type": "DT_INT32"}, "value": {"tensor": {"dtype": "DT_INT32", "tensorShape": {"dim": [{"size": "1"}]}}}}}, {"name": "StatefulPartitionedCall/model/sequential_9/layer_normalization_8/strided_slice_1/stack_2", "op": "Const", "attr": {"value": {"tensor": {"dtype": "DT_INT32", "tensorShape": {"dim": [{"size": "1"}]}}}, "dtype": {"type": "DT_INT32"}}}, {"name": "StatefulPartitionedCall/model/sequential_9/layer_normalization_8/strided_slice_2/stack", "op": "Const", "attr": {"dtype": {"type": "DT_INT32"}, "value": {"tensor": {"dtype": "DT_INT32", "tensorShape": {"dim": [{"size": "1"}]}}}}}, {"name": "StatefulPartitionedCall/model/sequential_9/layer_normalization_8/strided_slice_2/stack_1", "op": "Const", "attr": {"dtype": {"type": "DT_INT32"}, "value": {"tensor": {"dtype": "DT_INT32", "tensorShape": {"dim": [{"size": "1"}]}}}}}, {"name": "StatefulPartitionedCall/model/sequential_9/layer_normalization_8/strided_slice_2/stack_2", "op": "Const", "attr": {"value": {"tensor": {"dtype": "DT_INT32", "tensorShape": {"dim": [{"size": "1"}]}}}, "dtype": {"type": "DT_INT32"}}}, {"name": "StatefulPartitionedCall/model/sequential_9/layer_normalization_8/zeros/Const", "op": "Const", "attr": {"value": {"tensor": {"dtype": "DT_FLOAT", "tensorShape": {}}}, "dtype": {"type": "DT_FLOAT"}}}, {"name": "StatefulPartitionedCall/model/sequential_9/layer_normalization_8/Const", "op": "Const", "attr": {"value": {"tensor": {"dtype": "DT_FLOAT", "tensorShape": {"dim": [{}]}}}, "dtype": {"type": "DT_FLOAT"}}}, {"name": "StatefulPartitionedCall/model/sequential_9/layer_normalization_8/Const_1", "op": "Const", "attr": {"value": {"tensor": {"dtype": "DT_FLOAT", "tensorShape": {"dim": [{}]}}}, "dtype": {"type": "DT_FLOAT"}}}, {"name": "StatefulPartitionedCall/model/sequential_9/conv2d_transpose_1/strided_slice/stack", "op": "Const", "attr": {"dtype": {"type": "DT_INT32"}, "value": {"tensor": {"dtype": "DT_INT32", "tensorShape": {"dim": [{"size": "1"}]}}}}}, {"name": "StatefulPartitionedCall/model/sequential_9/conv2d_transpose_1/strided_slice/stack_1", "op": "Const", "attr": {"value": {"tensor": {"dtype": "DT_INT32", "tensorShape": {"dim": [{"size": "1"}]}}}, "dtype": {"type": "DT_INT32"}}}, {"name": "StatefulPartitionedCall/model/sequential_9/conv2d_transpose_1/strided_slice/stack_2", "op": "Const", "attr": {"value": {"tensor": {"dtype": "DT_INT32", "tensorShape": {"dim": [{"size": "1"}]}}}, "dtype": {"type": "DT_INT32"}}}, {"name": "StatefulPartitionedCall/model/sequential_9/conv2d_transpose_1/stack/1", "op": "Const", "attr": {"value": {"tensor": {"dtype": "DT_INT32", "tensorShape": {}}}, "dtype": {"type": "DT_INT32"}}}, {"name": "StatefulPartitionedCall/model/sequential_9/conv2d_transpose_1/stack/2", "op": "Const", "attr": {"dtype": {"type": "DT_INT32"}, "value": {"tensor": {"dtype": "DT_INT32", "tensorShape": {}}}}}, {"name": "StatefulPartitionedCall/model/sequential_9/conv2d_transpose_1/stack/3", "op": "Const", "attr": {"dtype": {"type": "DT_INT32"}, "value": {"tensor": {"dtype": "DT_INT32", "tensorShape": {}}}}}, {"name": "StatefulPartitionedCall/model/sequential_9/conv2d_transpose_1/conv2d_transpose/ReadVariableOp", "op": "Const", "attr": {"dtype": {"type": "DT_FLOAT"}, "value": {"tensor": {"dtype": "DT_FLOAT", "tensorShape": {"dim": [{"size": "4"}, {"size": "4"}, {"size": "256"}, {"size": "512"}]}}}}}, {"name": "StatefulPartitionedCall/model/sequential_8/layer_normalization_7/Reshape/shape/0", "op": "Const", "attr": {"dtype": {"type": "DT_INT32"}, "value": {"tensor": {"dtype": "DT_INT32", "tensorShape": {}}}}}, {"name": "StatefulPartitionedCall/model/sequential_8/layer_normalization_7/strided_slice_3/stack", "op": "Const", "attr": {"dtype": {"type": "DT_INT32"}, "value": {"tensor": {"dtype": "DT_INT32", "tensorShape": {"dim": [{"size": "1"}]}}}}}, {"name": "StatefulPartitionedCall/model/sequential_8/layer_normalization_7/strided_slice_3/stack_1", "op": "Const", "attr": {"dtype": {"type": "DT_INT32"}, "value": {"tensor": {"dtype": "DT_INT32", "tensorShape": {"dim": [{"size": "1"}]}}}}}, {"name": "StatefulPartitionedCall/model/sequential_8/layer_normalization_7/strided_slice_3/stack_2", "op": "Const", "attr": {"value": {"tensor": {"dtype": "DT_INT32", "tensorShape": {"dim": [{"size": "1"}]}}}, "dtype": {"type": "DT_INT32"}}}, {"name": "StatefulPartitionedCall/model/sequential_8/layer_normalization_7/Reshape/shape/3", "op": "Const", "attr": {"value": {"tensor": {"dtype": "DT_INT32", "tensorShape": {}}}, "dtype": {"type": "DT_INT32"}}}, {"name": "StatefulPartitionedCall/model/sequential_8/layer_normalization_7/ones/Const", "op": "Const", "attr": {"value": {"tensor": {"dtype": "DT_FLOAT", "tensorShape": {}}}, "dtype": {"type": "DT_FLOAT"}}}, {"name": "StatefulPartitionedCall/model/sequential_8/layer_normalization_7/strided_slice/stack", "op": "Const", "attr": {"dtype": {"type": "DT_INT32"}, "value": {"tensor": {"dtype": "DT_INT32", "tensorShape": {"dim": [{"size": "1"}]}}}}}, {"name": "StatefulPartitionedCall/model/sequential_8/layer_normalization_7/strided_slice/stack_1", "op": "Const", "attr": {"dtype": {"type": "DT_INT32"}, "value": {"tensor": {"dtype": "DT_INT32", "tensorShape": {"dim": [{"size": "1"}]}}}}}, {"name": "StatefulPartitionedCall/model/sequential_8/layer_normalization_7/strided_slice/stack_2", "op": "Const", "attr": {"value": {"tensor": {"dtype": "DT_INT32", "tensorShape": {"dim": [{"size": "1"}]}}}, "dtype": {"type": "DT_INT32"}}}, {"name": "StatefulPartitionedCall/model/sequential_8/layer_normalization_7/strided_slice_1/stack", "op": "Const", "attr": {"dtype": {"type": "DT_INT32"}, "value": {"tensor": {"dtype": "DT_INT32", "tensorShape": {"dim": [{"size": "1"}]}}}}}, {"name": "StatefulPartitionedCall/model/sequential_8/layer_normalization_7/strided_slice_1/stack_1", "op": "Const", "attr": {"value": {"tensor": {"dtype": "DT_INT32", "tensorShape": {"dim": [{"size": "1"}]}}}, "dtype": {"type": "DT_INT32"}}}, {"name": "StatefulPartitionedCall/model/sequential_8/layer_normalization_7/strided_slice_1/stack_2", "op": "Const", "attr": {"dtype": {"type": "DT_INT32"}, "value": {"tensor": {"dtype": "DT_INT32", "tensorShape": {"dim": [{"size": "1"}]}}}}}, {"name": "StatefulPartitionedCall/model/sequential_8/layer_normalization_7/strided_slice_2/stack", "op": "Const", "attr": {"dtype": {"type": "DT_INT32"}, "value": {"tensor": {"dtype": "DT_INT32", "tensorShape": {"dim": [{"size": "1"}]}}}}}, {"name": "StatefulPartitionedCall/model/sequential_8/layer_normalization_7/strided_slice_2/stack_1", "op": "Const", "attr": {"value": {"tensor": {"dtype": "DT_INT32", "tensorShape": {"dim": [{"size": "1"}]}}}, "dtype": {"type": "DT_INT32"}}}, {"name": "StatefulPartitionedCall/model/sequential_8/layer_normalization_7/strided_slice_2/stack_2", "op": "Const", "attr": {"dtype": {"type": "DT_INT32"}, "value": {"tensor": {"dtype": "DT_INT32", "tensorShape": {"dim": [{"size": "1"}]}}}}}, {"name": "StatefulPartitionedCall/model/sequential_8/layer_normalization_7/zeros/Const", "op": "Const", "attr": {"value": {"tensor": {"dtype": "DT_FLOAT", "tensorShape": {}}}, "dtype": {"type": "DT_FLOAT"}}}, {"name": "StatefulPartitionedCall/model/sequential_8/layer_normalization_7/Const", "op": "Const", "attr": {"value": {"tensor": {"dtype": "DT_FLOAT", "tensorShape": {"dim": [{}]}}}, "dtype": {"type": "DT_FLOAT"}}}, {"name": "StatefulPartitionedCall/model/sequential_8/layer_normalization_7/Const_1", "op": "Const", "attr": {"dtype": {"type": "DT_FLOAT"}, "value": {"tensor": {"dtype": "DT_FLOAT", "tensorShape": {"dim": [{}]}}}}}, {"name": "StatefulPartitionedCall/model/sequential_8/conv2d_transpose/strided_slice/stack", "op": "Const", "attr": {"value": {"tensor": {"dtype": "DT_INT32", "tensorShape": {"dim": [{"size": "1"}]}}}, "dtype": {"type": "DT_INT32"}}}, {"name": "StatefulPartitionedCall/model/sequential_8/conv2d_transpose/strided_slice/stack_1", "op": "Const", "attr": {"dtype": {"type": "DT_INT32"}, "value": {"tensor": {"dtype": "DT_INT32", "tensorShape": {"dim": [{"size": "1"}]}}}}}, {"name": "StatefulPartitionedCall/model/sequential_8/conv2d_transpose/strided_slice/stack_2", "op": "Const", "attr": {"dtype": {"type": "DT_INT32"}, "value": {"tensor": {"dtype": "DT_INT32", "tensorShape": {"dim": [{"size": "1"}]}}}}}, {"name": "StatefulPartitionedCall/model/sequential_8/conv2d_transpose/stack/1", "op": "Const", "attr": {"dtype": {"type": "DT_INT32"}, "value": {"tensor": {"dtype": "DT_INT32", "tensorShape": {}}}}}, {"name": "StatefulPartitionedCall/model/sequential_8/conv2d_transpose/stack/2", "op": "Const", "attr": {"value": {"tensor": {"dtype": "DT_INT32", "tensorShape": {}}}, "dtype": {"type": "DT_INT32"}}}, {"name": "StatefulPartitionedCall/model/sequential_8/conv2d_transpose/stack/3", "op": "Const", "attr": {"dtype": {"type": "DT_INT32"}, "value": {"tensor": {"dtype": "DT_INT32", "tensorShape": {}}}}}, {"name": "StatefulPartitionedCall/model/sequential_8/conv2d_transpose/conv2d_transpose/ReadVariableOp", "op": "Const", "attr": {"value": {"tensor": {"dtype": "DT_FLOAT", "tensorShape": {"dim": [{"size": "4"}, {"size": "4"}, {"size": "256"}, {"size": "256"}]}}}, "dtype": {"type": "DT_FLOAT"}}}, {"name": "StatefulPartitionedCall/model/sequential_7/layer_normalization_6/Reshape/shape/0", "op": "Const", "attr": {"value": {"tensor": {"dtype": "DT_INT32", "tensorShape": {}}}, "dtype": {"type": "DT_INT32"}}}, {"name": "StatefulPartitionedCall/model/sequential_7/layer_normalization_6/strided_slice_3/stack", "op": "Const", "attr": {"dtype": {"type": "DT_INT32"}, "value": {"tensor": {"dtype": "DT_INT32", "tensorShape": {"dim": [{"size": "1"}]}}}}}, {"name": "StatefulPartitionedCall/model/sequential_7/layer_normalization_6/strided_slice_3/stack_1", "op": "Const", "attr": {"dtype": {"type": "DT_INT32"}, "value": {"tensor": {"dtype": "DT_INT32", "tensorShape": {"dim": [{"size": "1"}]}}}}}, {"name": "StatefulPartitionedCall/model/sequential_7/layer_normalization_6/strided_slice_3/stack_2", "op": "Const", "attr": {"value": {"tensor": {"dtype": "DT_INT32", "tensorShape": {"dim": [{"size": "1"}]}}}, "dtype": {"type": "DT_INT32"}}}, {"name": "StatefulPartitionedCall/model/sequential_7/layer_normalization_6/Reshape/shape/3", "op": "Const", "attr": {"dtype": {"type": "DT_INT32"}, "value": {"tensor": {"dtype": "DT_INT32", "tensorShape": {}}}}}, {"name": "StatefulPartitionedCall/model/sequential_7/layer_normalization_6/ones/Const", "op": "Const", "attr": {"value": {"tensor": {"dtype": "DT_FLOAT", "tensorShape": {}}}, "dtype": {"type": "DT_FLOAT"}}}, {"name": "StatefulPartitionedCall/model/sequential_7/layer_normalization_6/strided_slice/stack", "op": "Const", "attr": {"dtype": {"type": "DT_INT32"}, "value": {"tensor": {"dtype": "DT_INT32", "tensorShape": {"dim": [{"size": "1"}]}}}}}, {"name": "StatefulPartitionedCall/model/sequential_7/layer_normalization_6/strided_slice/stack_1", "op": "Const", "attr": {"value": {"tensor": {"dtype": "DT_INT32", "tensorShape": {"dim": [{"size": "1"}]}}}, "dtype": {"type": "DT_INT32"}}}, {"name": "StatefulPartitionedCall/model/sequential_7/layer_normalization_6/strided_slice/stack_2", "op": "Const", "attr": {"value": {"tensor": {"dtype": "DT_INT32", "tensorShape": {"dim": [{"size": "1"}]}}}, "dtype": {"type": "DT_INT32"}}}, {"name": "StatefulPartitionedCall/model/sequential_7/layer_normalization_6/strided_slice_1/stack", "op": "Const", "attr": {"value": {"tensor": {"dtype": "DT_INT32", "tensorShape": {"dim": [{"size": "1"}]}}}, "dtype": {"type": "DT_INT32"}}}, {"name": "StatefulPartitionedCall/model/sequential_7/layer_normalization_6/strided_slice_1/stack_1", "op": "Const", "attr": {"dtype": {"type": "DT_INT32"}, "value": {"tensor": {"dtype": "DT_INT32", "tensorShape": {"dim": [{"size": "1"}]}}}}}, {"name": "StatefulPartitionedCall/model/sequential_7/layer_normalization_6/strided_slice_1/stack_2", "op": "Const", "attr": {"dtype": {"type": "DT_INT32"}, "value": {"tensor": {"dtype": "DT_INT32", "tensorShape": {"dim": [{"size": "1"}]}}}}}, {"name": "StatefulPartitionedCall/model/sequential_7/layer_normalization_6/strided_slice_2/stack", "op": "Const", "attr": {"dtype": {"type": "DT_INT32"}, "value": {"tensor": {"dtype": "DT_INT32", "tensorShape": {"dim": [{"size": "1"}]}}}}}, {"name": "StatefulPartitionedCall/model/sequential_7/layer_normalization_6/strided_slice_2/stack_1", "op": "Const", "attr": {"value": {"tensor": {"dtype": "DT_INT32", "tensorShape": {"dim": [{"size": "1"}]}}}, "dtype": {"type": "DT_INT32"}}}, {"name": "StatefulPartitionedCall/model/sequential_7/layer_normalization_6/strided_slice_2/stack_2", "op": "Const", "attr": {"dtype": {"type": "DT_INT32"}, "value": {"tensor": {"dtype": "DT_INT32", "tensorShape": {"dim": [{"size": "1"}]}}}}}, {"name": "StatefulPartitionedCall/model/sequential_7/layer_normalization_6/zeros/Const", "op": "Const", "attr": {"dtype": {"type": "DT_FLOAT"}, "value": {"tensor": {"dtype": "DT_FLOAT", "tensorShape": {}}}}}, {"name": "StatefulPartitionedCall/model/sequential_7/layer_normalization_6/Const", "op": "Const", "attr": {"value": {"tensor": {"dtype": "DT_FLOAT", "tensorShape": {"dim": [{}]}}}, "dtype": {"type": "DT_FLOAT"}}}, {"name": "StatefulPartitionedCall/model/sequential_7/layer_normalization_6/Const_1", "op": "Const", "attr": {"value": {"tensor": {"dtype": "DT_FLOAT", "tensorShape": {"dim": [{}]}}}, "dtype": {"type": "DT_FLOAT"}}}, {"name": "StatefulPartitionedCall/model/sequential_7/conv2d_7/Conv2D/ReadVariableOp", "op": "Const", "attr": {"value": {"tensor": {"dtype": "DT_FLOAT", "tensorShape": {"dim": [{"size": "4"}, {"size": "4"}, {"size": "256"}, {"size": "256"}]}}}, "dtype": {"type": "DT_FLOAT"}}}, {"name": "StatefulPartitionedCall/model/sequential_7/layer_normalization_6/mul_4/ReadVariableOp", "op": "Const", "attr": {"dtype": {"type": "DT_FLOAT"}, "value": {"tensor": {"dtype": "DT_FLOAT", "tensorShape": {"dim": [{"size": "256"}]}}}}}, {"name": "StatefulPartitionedCall/model/sequential_7/layer_normalization_6/add/ReadVariableOp", "op": "Const", "attr": {"value": {"tensor": {"dtype": "DT_FLOAT", "tensorShape": {"dim": [{"size": "256"}]}}}, "dtype": {"type": "DT_FLOAT"}}}, {"name": "StatefulPartitionedCall/model/sequential_8/layer_normalization_7/mul_4/ReadVariableOp", "op": "Const", "attr": {"value": {"tensor": {"dtype": "DT_FLOAT", "tensorShape": {"dim": [{"size": "256"}]}}}, "dtype": {"type": "DT_FLOAT"}}}, {"name": "StatefulPartitionedCall/model/sequential_8/layer_normalization_7/add/ReadVariableOp", "op": "Const", "attr": {"dtype": {"type": "DT_FLOAT"}, "value": {"tensor": {"dtype": "DT_FLOAT", "tensorShape": {"dim": [{"size": "256"}]}}}}}, {"name": "StatefulPartitionedCall/model/sequential_6/layer_normalization_5/Reshape/shape/0", "op": "Const", "attr": {"value": {"tensor": {"dtype": "DT_INT32", "tensorShape": {}}}, "dtype": {"type": "DT_INT32"}}}, {"name": "StatefulPartitionedCall/model/sequential_6/layer_normalization_5/strided_slice_3/stack", "op": "Const", "attr": {"dtype": {"type": "DT_INT32"}, "value": {"tensor": {"dtype": "DT_INT32", "tensorShape": {"dim": [{"size": "1"}]}}}}}, {"name": "StatefulPartitionedCall/model/sequential_6/layer_normalization_5/strided_slice_3/stack_1", "op": "Const", "attr": {"dtype": {"type": "DT_INT32"}, "value": {"tensor": {"dtype": "DT_INT32", "tensorShape": {"dim": [{"size": "1"}]}}}}}, {"name": "StatefulPartitionedCall/model/sequential_6/layer_normalization_5/strided_slice_3/stack_2", "op": "Const", "attr": {"value": {"tensor": {"dtype": "DT_INT32", "tensorShape": {"dim": [{"size": "1"}]}}}, "dtype": {"type": "DT_INT32"}}}, {"name": "StatefulPartitionedCall/model/sequential_6/layer_normalization_5/Reshape/shape/3", "op": "Const", "attr": {"value": {"tensor": {"dtype": "DT_INT32", "tensorShape": {}}}, "dtype": {"type": "DT_INT32"}}}, {"name": "StatefulPartitionedCall/model/sequential_6/layer_normalization_5/ones/Const", "op": "Const", "attr": {"value": {"tensor": {"dtype": "DT_FLOAT", "tensorShape": {}}}, "dtype": {"type": "DT_FLOAT"}}}, {"name": "StatefulPartitionedCall/model/sequential_6/layer_normalization_5/strided_slice/stack", "op": "Const", "attr": {"dtype": {"type": "DT_INT32"}, "value": {"tensor": {"dtype": "DT_INT32", "tensorShape": {"dim": [{"size": "1"}]}}}}}, {"name": "StatefulPartitionedCall/model/sequential_6/layer_normalization_5/strided_slice/stack_1", "op": "Const", "attr": {"value": {"tensor": {"dtype": "DT_INT32", "tensorShape": {"dim": [{"size": "1"}]}}}, "dtype": {"type": "DT_INT32"}}}, {"name": "StatefulPartitionedCall/model/sequential_6/layer_normalization_5/strided_slice/stack_2", "op": "Const", "attr": {"value": {"tensor": {"dtype": "DT_INT32", "tensorShape": {"dim": [{"size": "1"}]}}}, "dtype": {"type": "DT_INT32"}}}, {"name": "StatefulPartitionedCall/model/sequential_6/layer_normalization_5/strided_slice_1/stack", "op": "Const", "attr": {"dtype": {"type": "DT_INT32"}, "value": {"tensor": {"dtype": "DT_INT32", "tensorShape": {"dim": [{"size": "1"}]}}}}}, {"name": "StatefulPartitionedCall/model/sequential_6/layer_normalization_5/strided_slice_1/stack_1", "op": "Const", "attr": {"value": {"tensor": {"dtype": "DT_INT32", "tensorShape": {"dim": [{"size": "1"}]}}}, "dtype": {"type": "DT_INT32"}}}, {"name": "StatefulPartitionedCall/model/sequential_6/layer_normalization_5/strided_slice_1/stack_2", "op": "Const", "attr": {"value": {"tensor": {"dtype": "DT_INT32", "tensorShape": {"dim": [{"size": "1"}]}}}, "dtype": {"type": "DT_INT32"}}}, {"name": "StatefulPartitionedCall/model/sequential_6/layer_normalization_5/strided_slice_2/stack", "op": "Const", "attr": {"value": {"tensor": {"dtype": "DT_INT32", "tensorShape": {"dim": [{"size": "1"}]}}}, "dtype": {"type": "DT_INT32"}}}, {"name": "StatefulPartitionedCall/model/sequential_6/layer_normalization_5/strided_slice_2/stack_1", "op": "Const", "attr": {"value": {"tensor": {"dtype": "DT_INT32", "tensorShape": {"dim": [{"size": "1"}]}}}, "dtype": {"type": "DT_INT32"}}}, {"name": "StatefulPartitionedCall/model/sequential_6/layer_normalization_5/strided_slice_2/stack_2", "op": "Const", "attr": {"dtype": {"type": "DT_INT32"}, "value": {"tensor": {"dtype": "DT_INT32", "tensorShape": {"dim": [{"size": "1"}]}}}}}, {"name": "StatefulPartitionedCall/model/sequential_6/layer_normalization_5/zeros/Const", "op": "Const", "attr": {"dtype": {"type": "DT_FLOAT"}, "value": {"tensor": {"dtype": "DT_FLOAT", "tensorShape": {}}}}}, {"name": "StatefulPartitionedCall/model/sequential_6/layer_normalization_5/Const", "op": "Const", "attr": {"value": {"tensor": {"dtype": "DT_FLOAT", "tensorShape": {"dim": [{}]}}}, "dtype": {"type": "DT_FLOAT"}}}, {"name": "StatefulPartitionedCall/model/sequential_6/layer_normalization_5/Const_1", "op": "Const", "attr": {"dtype": {"type": "DT_FLOAT"}, "value": {"tensor": {"dtype": "DT_FLOAT", "tensorShape": {"dim": [{}]}}}}}, {"name": "StatefulPartitionedCall/model/sequential_6/conv2d_6/Conv2D/ReadVariableOp", "op": "Const", "attr": {"value": {"tensor": {"dtype": "DT_FLOAT", "tensorShape": {"dim": [{"size": "4"}, {"size": "4"}, {"size": "256"}, {"size": "256"}]}}}, "dtype": {"type": "DT_FLOAT"}}}, {"name": "StatefulPartitionedCall/model/sequential_6/layer_normalization_5/mul_4/ReadVariableOp", "op": "Const", "attr": {"value": {"tensor": {"dtype": "DT_FLOAT", "tensorShape": {"dim": [{"size": "256"}]}}}, "dtype": {"type": "DT_FLOAT"}}}, {"name": "StatefulPartitionedCall/model/sequential_6/layer_normalization_5/add/ReadVariableOp", "op": "Const", "attr": {"value": {"tensor": {"dtype": "DT_FLOAT", "tensorShape": {"dim": [{"size": "256"}]}}}, "dtype": {"type": "DT_FLOAT"}}}, {"name": "StatefulPartitionedCall/model/concatenate/concat/axis", "op": "Const", "attr": {"value": {"tensor": {"dtype": "DT_INT32", "tensorShape": {}}}, "dtype": {"type": "DT_INT32"}}}, {"name": "StatefulPartitionedCall/model/sequential_9/layer_normalization_8/mul_4/ReadVariableOp", "op": "Const", "attr": {"dtype": {"type": "DT_FLOAT"}, "value": {"tensor": {"dtype": "DT_FLOAT", "tensorShape": {"dim": [{"size": "256"}]}}}}}, {"name": "StatefulPartitionedCall/model/sequential_9/layer_normalization_8/add/ReadVariableOp", "op": "Const", "attr": {"value": {"tensor": {"dtype": "DT_FLOAT", "tensorShape": {"dim": [{"size": "256"}]}}}, "dtype": {"type": "DT_FLOAT"}}}, {"name": "StatefulPartitionedCall/model/sequential_5/layer_normalization_4/Reshape/shape/0", "op": "Const", "attr": {"dtype": {"type": "DT_INT32"}, "value": {"tensor": {"dtype": "DT_INT32", "tensorShape": {}}}}}, {"name": "StatefulPartitionedCall/model/sequential_5/layer_normalization_4/strided_slice_3/stack", "op": "Const", "attr": {"value": {"tensor": {"dtype": "DT_INT32", "tensorShape": {"dim": [{"size": "1"}]}}}, "dtype": {"type": "DT_INT32"}}}, {"name": "StatefulPartitionedCall/model/sequential_5/layer_normalization_4/strided_slice_3/stack_1", "op": "Const", "attr": {"dtype": {"type": "DT_INT32"}, "value": {"tensor": {"dtype": "DT_INT32", "tensorShape": {"dim": [{"size": "1"}]}}}}}, {"name": "StatefulPartitionedCall/model/sequential_5/layer_normalization_4/strided_slice_3/stack_2", "op": "Const", "attr": {"dtype": {"type": "DT_INT32"}, "value": {"tensor": {"dtype": "DT_INT32", "tensorShape": {"dim": [{"size": "1"}]}}}}}, {"name": "StatefulPartitionedCall/model/sequential_5/layer_normalization_4/Reshape/shape/3", "op": "Const", "attr": {"value": {"tensor": {"dtype": "DT_INT32", "tensorShape": {}}}, "dtype": {"type": "DT_INT32"}}}, {"name": "StatefulPartitionedCall/model/sequential_5/layer_normalization_4/ones/Const", "op": "Const", "attr": {"dtype": {"type": "DT_FLOAT"}, "value": {"tensor": {"dtype": "DT_FLOAT", "tensorShape": {}}}}}, {"name": "StatefulPartitionedCall/model/sequential_5/layer_normalization_4/strided_slice/stack", "op": "Const", "attr": {"value": {"tensor": {"dtype": "DT_INT32", "tensorShape": {"dim": [{"size": "1"}]}}}, "dtype": {"type": "DT_INT32"}}}, {"name": "StatefulPartitionedCall/model/sequential_5/layer_normalization_4/strided_slice/stack_1", "op": "Const", "attr": {"dtype": {"type": "DT_INT32"}, "value": {"tensor": {"dtype": "DT_INT32", "tensorShape": {"dim": [{"size": "1"}]}}}}}, {"name": "StatefulPartitionedCall/model/sequential_5/layer_normalization_4/strided_slice/stack_2", "op": "Const", "attr": {"dtype": {"type": "DT_INT32"}, "value": {"tensor": {"dtype": "DT_INT32", "tensorShape": {"dim": [{"size": "1"}]}}}}}, {"name": "StatefulPartitionedCall/model/sequential_5/layer_normalization_4/strided_slice_1/stack", "op": "Const", "attr": {"value": {"tensor": {"dtype": "DT_INT32", "tensorShape": {"dim": [{"size": "1"}]}}}, "dtype": {"type": "DT_INT32"}}}, {"name": "StatefulPartitionedCall/model/sequential_5/layer_normalization_4/strided_slice_1/stack_1", "op": "Const", "attr": {"value": {"tensor": {"dtype": "DT_INT32", "tensorShape": {"dim": [{"size": "1"}]}}}, "dtype": {"type": "DT_INT32"}}}, {"name": "StatefulPartitionedCall/model/sequential_5/layer_normalization_4/strided_slice_1/stack_2", "op": "Const", "attr": {"value": {"tensor": {"dtype": "DT_INT32", "tensorShape": {"dim": [{"size": "1"}]}}}, "dtype": {"type": "DT_INT32"}}}, {"name": "StatefulPartitionedCall/model/sequential_5/layer_normalization_4/strided_slice_2/stack", "op": "Const", "attr": {"dtype": {"type": "DT_INT32"}, "value": {"tensor": {"dtype": "DT_INT32", "tensorShape": {"dim": [{"size": "1"}]}}}}}, {"name": "StatefulPartitionedCall/model/sequential_5/layer_normalization_4/strided_slice_2/stack_1", "op": "Const", "attr": {"dtype": {"type": "DT_INT32"}, "value": {"tensor": {"dtype": "DT_INT32", "tensorShape": {"dim": [{"size": "1"}]}}}}}, {"name": "StatefulPartitionedCall/model/sequential_5/layer_normalization_4/strided_slice_2/stack_2", "op": "Const", "attr": {"dtype": {"type": "DT_INT32"}, "value": {"tensor": {"dtype": "DT_INT32", "tensorShape": {"dim": [{"size": "1"}]}}}}}, {"name": "StatefulPartitionedCall/model/sequential_5/layer_normalization_4/zeros/Const", "op": "Const", "attr": {"dtype": {"type": "DT_FLOAT"}, "value": {"tensor": {"dtype": "DT_FLOAT", "tensorShape": {}}}}}, {"name": "StatefulPartitionedCall/model/sequential_5/layer_normalization_4/Const", "op": "Const", "attr": {"dtype": {"type": "DT_FLOAT"}, "value": {"tensor": {"dtype": "DT_FLOAT", "tensorShape": {"dim": [{}]}}}}}, {"name": "StatefulPartitionedCall/model/sequential_5/layer_normalization_4/Const_1", "op": "Const", "attr": {"dtype": {"type": "DT_FLOAT"}, "value": {"tensor": {"dtype": "DT_FLOAT", "tensorShape": {"dim": [{}]}}}}}, {"name": "StatefulPartitionedCall/model/sequential_5/conv2d_5/Conv2D/ReadVariableOp", "op": "Const", "attr": {"value": {"tensor": {"dtype": "DT_FLOAT", "tensorShape": {"dim": [{"size": "4"}, {"size": "4"}, {"size": "256"}, {"size": "256"}]}}}, "dtype": {"type": "DT_FLOAT"}}}, {"name": "StatefulPartitionedCall/model/sequential_5/layer_normalization_4/mul_4/ReadVariableOp", "op": "Const", "attr": {"dtype": {"type": "DT_FLOAT"}, "value": {"tensor": {"dtype": "DT_FLOAT", "tensorShape": {"dim": [{"size": "256"}]}}}}}, {"name": "StatefulPartitionedCall/model/sequential_5/layer_normalization_4/add/ReadVariableOp", "op": "Const", "attr": {"dtype": {"type": "DT_FLOAT"}, "value": {"tensor": {"dtype": "DT_FLOAT", "tensorShape": {"dim": [{"size": "256"}]}}}}}, {"name": "StatefulPartitionedCall/model/concatenate_1/concat/axis", "op": "Const", "attr": {"dtype": {"type": "DT_INT32"}, "value": {"tensor": {"dtype": "DT_INT32", "tensorShape": {}}}}}, {"name": "StatefulPartitionedCall/model/sequential_10/layer_normalization_9/mul_4/ReadVariableOp", "op": "Const", "attr": {"value": {"tensor": {"dtype": "DT_FLOAT", "tensorShape": {"dim": [{"size": "256"}]}}}, "dtype": {"type": "DT_FLOAT"}}}, {"name": "StatefulPartitionedCall/model/sequential_10/layer_normalization_9/add/ReadVariableOp", "op": "Const", "attr": {"value": {"tensor": {"dtype": "DT_FLOAT", "tensorShape": {"dim": [{"size": "256"}]}}}, "dtype": {"type": "DT_FLOAT"}}}, {"name": "StatefulPartitionedCall/model/sequential_4/layer_normalization_3/Reshape/shape/0", "op": "Const", "attr": {"dtype": {"type": "DT_INT32"}, "value": {"tensor": {"dtype": "DT_INT32", "tensorShape": {}}}}}, {"name": "StatefulPartitionedCall/model/sequential_4/layer_normalization_3/strided_slice_3/stack", "op": "Const", "attr": {"value": {"tensor": {"dtype": "DT_INT32", "tensorShape": {"dim": [{"size": "1"}]}}}, "dtype": {"type": "DT_INT32"}}}, {"name": "StatefulPartitionedCall/model/sequential_4/layer_normalization_3/strided_slice_3/stack_1", "op": "Const", "attr": {"dtype": {"type": "DT_INT32"}, "value": {"tensor": {"dtype": "DT_INT32", "tensorShape": {"dim": [{"size": "1"}]}}}}}, {"name": "StatefulPartitionedCall/model/sequential_4/layer_normalization_3/strided_slice_3/stack_2", "op": "Const", "attr": {"dtype": {"type": "DT_INT32"}, "value": {"tensor": {"dtype": "DT_INT32", "tensorShape": {"dim": [{"size": "1"}]}}}}}, {"name": "StatefulPartitionedCall/model/sequential_4/layer_normalization_3/Reshape/shape/3", "op": "Const", "attr": {"value": {"tensor": {"dtype": "DT_INT32", "tensorShape": {}}}, "dtype": {"type": "DT_INT32"}}}, {"name": "StatefulPartitionedCall/model/sequential_4/layer_normalization_3/ones/Const", "op": "Const", "attr": {"value": {"tensor": {"dtype": "DT_FLOAT", "tensorShape": {}}}, "dtype": {"type": "DT_FLOAT"}}}, {"name": "StatefulPartitionedCall/model/sequential_4/layer_normalization_3/strided_slice/stack", "op": "Const", "attr": {"dtype": {"type": "DT_INT32"}, "value": {"tensor": {"dtype": "DT_INT32", "tensorShape": {"dim": [{"size": "1"}]}}}}}, {"name": "StatefulPartitionedCall/model/sequential_4/layer_normalization_3/strided_slice/stack_1", "op": "Const", "attr": {"dtype": {"type": "DT_INT32"}, "value": {"tensor": {"dtype": "DT_INT32", "tensorShape": {"dim": [{"size": "1"}]}}}}}, {"name": "StatefulPartitionedCall/model/sequential_4/layer_normalization_3/strided_slice/stack_2", "op": "Const", "attr": {"dtype": {"type": "DT_INT32"}, "value": {"tensor": {"dtype": "DT_INT32", "tensorShape": {"dim": [{"size": "1"}]}}}}}, {"name": "StatefulPartitionedCall/model/sequential_4/layer_normalization_3/strided_slice_1/stack", "op": "Const", "attr": {"dtype": {"type": "DT_INT32"}, "value": {"tensor": {"dtype": "DT_INT32", "tensorShape": {"dim": [{"size": "1"}]}}}}}, {"name": "StatefulPartitionedCall/model/sequential_4/layer_normalization_3/strided_slice_1/stack_1", "op": "Const", "attr": {"dtype": {"type": "DT_INT32"}, "value": {"tensor": {"dtype": "DT_INT32", "tensorShape": {"dim": [{"size": "1"}]}}}}}, {"name": "StatefulPartitionedCall/model/sequential_4/layer_normalization_3/strided_slice_1/stack_2", "op": "Const", "attr": {"value": {"tensor": {"dtype": "DT_INT32", "tensorShape": {"dim": [{"size": "1"}]}}}, "dtype": {"type": "DT_INT32"}}}, {"name": "StatefulPartitionedCall/model/sequential_4/layer_normalization_3/strided_slice_2/stack", "op": "Const", "attr": {"dtype": {"type": "DT_INT32"}, "value": {"tensor": {"dtype": "DT_INT32", "tensorShape": {"dim": [{"size": "1"}]}}}}}, {"name": "StatefulPartitionedCall/model/sequential_4/layer_normalization_3/strided_slice_2/stack_1", "op": "Const", "attr": {"value": {"tensor": {"dtype": "DT_INT32", "tensorShape": {"dim": [{"size": "1"}]}}}, "dtype": {"type": "DT_INT32"}}}, {"name": "StatefulPartitionedCall/model/sequential_4/layer_normalization_3/strided_slice_2/stack_2", "op": "Const", "attr": {"dtype": {"type": "DT_INT32"}, "value": {"tensor": {"dtype": "DT_INT32", "tensorShape": {"dim": [{"size": "1"}]}}}}}, {"name": "StatefulPartitionedCall/model/sequential_4/layer_normalization_3/zeros/Const", "op": "Const", "attr": {"value": {"tensor": {"dtype": "DT_FLOAT", "tensorShape": {}}}, "dtype": {"type": "DT_FLOAT"}}}, {"name": "StatefulPartitionedCall/model/sequential_4/layer_normalization_3/Const", "op": "Const", "attr": {"value": {"tensor": {"dtype": "DT_FLOAT", "tensorShape": {"dim": [{}]}}}, "dtype": {"type": "DT_FLOAT"}}}, {"name": "StatefulPartitionedCall/model/sequential_4/layer_normalization_3/Const_1", "op": "Const", "attr": {"dtype": {"type": "DT_FLOAT"}, "value": {"tensor": {"dtype": "DT_FLOAT", "tensorShape": {"dim": [{}]}}}}}, {"name": "StatefulPartitionedCall/model/sequential_4/conv2d_4/Conv2D/ReadVariableOp", "op": "Const", "attr": {"dtype": {"type": "DT_FLOAT"}, "value": {"tensor": {"dtype": "DT_FLOAT", "tensorShape": {"dim": [{"size": "4"}, {"size": "4"}, {"size": "256"}, {"size": "256"}]}}}}}, {"name": "StatefulPartitionedCall/model/sequential_4/layer_normalization_3/mul_4/ReadVariableOp", "op": "Const", "attr": {"value": {"tensor": {"dtype": "DT_FLOAT", "tensorShape": {"dim": [{"size": "256"}]}}}, "dtype": {"type": "DT_FLOAT"}}}, {"name": "StatefulPartitionedCall/model/sequential_4/layer_normalization_3/add/ReadVariableOp", "op": "Const", "attr": {"value": {"tensor": {"dtype": "DT_FLOAT", "tensorShape": {"dim": [{"size": "256"}]}}}, "dtype": {"type": "DT_FLOAT"}}}, {"name": "StatefulPartitionedCall/model/concatenate_2/concat/axis", "op": "Const", "attr": {"value": {"tensor": {"dtype": "DT_INT32", "tensorShape": {}}}, "dtype": {"type": "DT_INT32"}}}, {"name": "StatefulPartitionedCall/model/sequential_11/layer_normalization_10/mul_4/ReadVariableOp", "op": "Const", "attr": {"value": {"tensor": {"dtype": "DT_FLOAT", "tensorShape": {"dim": [{"size": "256"}]}}}, "dtype": {"type": "DT_FLOAT"}}}, {"name": "StatefulPartitionedCall/model/sequential_11/layer_normalization_10/add/ReadVariableOp", "op": "Const", "attr": {"dtype": {"type": "DT_FLOAT"}, "value": {"tensor": {"dtype": "DT_FLOAT", "tensorShape": {"dim": [{"size": "256"}]}}}}}, {"name": "StatefulPartitionedCall/model/sequential_3/layer_normalization_2/Reshape/shape/0", "op": "Const", "attr": {"dtype": {"type": "DT_INT32"}, "value": {"tensor": {"dtype": "DT_INT32", "tensorShape": {}}}}}, {"name": "StatefulPartitionedCall/model/sequential_3/layer_normalization_2/strided_slice_3/stack", "op": "Const", "attr": {"value": {"tensor": {"dtype": "DT_INT32", "tensorShape": {"dim": [{"size": "1"}]}}}, "dtype": {"type": "DT_INT32"}}}, {"name": "StatefulPartitionedCall/model/sequential_3/layer_normalization_2/strided_slice_3/stack_1", "op": "Const", "attr": {"dtype": {"type": "DT_INT32"}, "value": {"tensor": {"dtype": "DT_INT32", "tensorShape": {"dim": [{"size": "1"}]}}}}}, {"name": "StatefulPartitionedCall/model/sequential_3/layer_normalization_2/strided_slice_3/stack_2", "op": "Const", "attr": {"dtype": {"type": "DT_INT32"}, "value": {"tensor": {"dtype": "DT_INT32", "tensorShape": {"dim": [{"size": "1"}]}}}}}, {"name": "StatefulPartitionedCall/model/sequential_3/layer_normalization_2/Reshape/shape/3", "op": "Const", "attr": {"value": {"tensor": {"dtype": "DT_INT32", "tensorShape": {}}}, "dtype": {"type": "DT_INT32"}}}, {"name": "StatefulPartitionedCall/model/sequential_3/layer_normalization_2/ones/Const", "op": "Const", "attr": {"value": {"tensor": {"dtype": "DT_FLOAT", "tensorShape": {}}}, "dtype": {"type": "DT_FLOAT"}}}, {"name": "StatefulPartitionedCall/model/sequential_3/layer_normalization_2/strided_slice/stack", "op": "Const", "attr": {"dtype": {"type": "DT_INT32"}, "value": {"tensor": {"dtype": "DT_INT32", "tensorShape": {"dim": [{"size": "1"}]}}}}}, {"name": "StatefulPartitionedCall/model/sequential_3/layer_normalization_2/strided_slice/stack_1", "op": "Const", "attr": {"dtype": {"type": "DT_INT32"}, "value": {"tensor": {"dtype": "DT_INT32", "tensorShape": {"dim": [{"size": "1"}]}}}}}, {"name": "StatefulPartitionedCall/model/sequential_3/layer_normalization_2/strided_slice/stack_2", "op": "Const", "attr": {"value": {"tensor": {"dtype": "DT_INT32", "tensorShape": {"dim": [{"size": "1"}]}}}, "dtype": {"type": "DT_INT32"}}}, {"name": "StatefulPartitionedCall/model/sequential_3/layer_normalization_2/strided_slice_1/stack", "op": "Const", "attr": {"value": {"tensor": {"dtype": "DT_INT32", "tensorShape": {"dim": [{"size": "1"}]}}}, "dtype": {"type": "DT_INT32"}}}, {"name": "StatefulPartitionedCall/model/sequential_3/layer_normalization_2/strided_slice_1/stack_1", "op": "Const", "attr": {"dtype": {"type": "DT_INT32"}, "value": {"tensor": {"dtype": "DT_INT32", "tensorShape": {"dim": [{"size": "1"}]}}}}}, {"name": "StatefulPartitionedCall/model/sequential_3/layer_normalization_2/strided_slice_1/stack_2", "op": "Const", "attr": {"dtype": {"type": "DT_INT32"}, "value": {"tensor": {"dtype": "DT_INT32", "tensorShape": {"dim": [{"size": "1"}]}}}}}, {"name": "StatefulPartitionedCall/model/sequential_3/layer_normalization_2/strided_slice_2/stack", "op": "Const", "attr": {"value": {"tensor": {"dtype": "DT_INT32", "tensorShape": {"dim": [{"size": "1"}]}}}, "dtype": {"type": "DT_INT32"}}}, {"name": "StatefulPartitionedCall/model/sequential_3/layer_normalization_2/strided_slice_2/stack_1", "op": "Const", "attr": {"value": {"tensor": {"dtype": "DT_INT32", "tensorShape": {"dim": [{"size": "1"}]}}}, "dtype": {"type": "DT_INT32"}}}, {"name": "StatefulPartitionedCall/model/sequential_3/layer_normalization_2/strided_slice_2/stack_2", "op": "Const", "attr": {"value": {"tensor": {"dtype": "DT_INT32", "tensorShape": {"dim": [{"size": "1"}]}}}, "dtype": {"type": "DT_INT32"}}}, {"name": "StatefulPartitionedCall/model/sequential_3/layer_normalization_2/zeros/Const", "op": "Const", "attr": {"value": {"tensor": {"dtype": "DT_FLOAT", "tensorShape": {}}}, "dtype": {"type": "DT_FLOAT"}}}, {"name": "StatefulPartitionedCall/model/sequential_3/layer_normalization_2/Const", "op": "Const", "attr": {"dtype": {"type": "DT_FLOAT"}, "value": {"tensor": {"dtype": "DT_FLOAT", "tensorShape": {"dim": [{}]}}}}}, {"name": "StatefulPartitionedCall/model/sequential_3/layer_normalization_2/Const_1", "op": "Const", "attr": {"dtype": {"type": "DT_FLOAT"}, "value": {"tensor": {"dtype": "DT_FLOAT", "tensorShape": {"dim": [{}]}}}}}, {"name": "StatefulPartitionedCall/model/sequential_3/conv2d_3/Conv2D/ReadVariableOp", "op": "Const", "attr": {"value": {"tensor": {"dtype": "DT_FLOAT", "tensorShape": {"dim": [{"size": "4"}, {"size": "4"}, {"size": "128"}, {"size": "256"}]}}}, "dtype": {"type": "DT_FLOAT"}}}, {"name": "StatefulPartitionedCall/model/sequential_3/layer_normalization_2/mul_4/ReadVariableOp", "op": "Const", "attr": {"dtype": {"type": "DT_FLOAT"}, "value": {"tensor": {"dtype": "DT_FLOAT", "tensorShape": {"dim": [{"size": "256"}]}}}}}, {"name": "StatefulPartitionedCall/model/sequential_3/layer_normalization_2/add/ReadVariableOp", "op": "Const", "attr": {"dtype": {"type": "DT_FLOAT"}, "value": {"tensor": {"dtype": "DT_FLOAT", "tensorShape": {"dim": [{"size": "256"}]}}}}}, {"name": "StatefulPartitionedCall/model/concatenate_3/concat/axis", "op": "Const", "attr": {"dtype": {"type": "DT_INT32"}, "value": {"tensor": {"dtype": "DT_INT32", "tensorShape": {}}}}}, {"name": "StatefulPartitionedCall/model/sequential_12/layer_normalization_11/mul_4/ReadVariableOp", "op": "Const", "attr": {"value": {"tensor": {"dtype": "DT_FLOAT", "tensorShape": {"dim": [{"size": "128"}]}}}, "dtype": {"type": "DT_FLOAT"}}}, {"name": "StatefulPartitionedCall/model/sequential_12/layer_normalization_11/add/ReadVariableOp", "op": "Const", "attr": {"dtype": {"type": "DT_FLOAT"}, "value": {"tensor": {"dtype": "DT_FLOAT", "tensorShape": {"dim": [{"size": "128"}]}}}}}, {"name": "StatefulPartitionedCall/model/sequential_2/layer_normalization_1/Reshape/shape/0", "op": "Const", "attr": {"dtype": {"type": "DT_INT32"}, "value": {"tensor": {"dtype": "DT_INT32", "tensorShape": {}}}}}, {"name": "StatefulPartitionedCall/model/sequential_2/layer_normalization_1/strided_slice_3/stack", "op": "Const", "attr": {"dtype": {"type": "DT_INT32"}, "value": {"tensor": {"dtype": "DT_INT32", "tensorShape": {"dim": [{"size": "1"}]}}}}}, {"name": "StatefulPartitionedCall/model/sequential_2/layer_normalization_1/strided_slice_3/stack_1", "op": "Const", "attr": {"dtype": {"type": "DT_INT32"}, "value": {"tensor": {"dtype": "DT_INT32", "tensorShape": {"dim": [{"size": "1"}]}}}}}, {"name": "StatefulPartitionedCall/model/sequential_2/layer_normalization_1/strided_slice_3/stack_2", "op": "Const", "attr": {"dtype": {"type": "DT_INT32"}, "value": {"tensor": {"dtype": "DT_INT32", "tensorShape": {"dim": [{"size": "1"}]}}}}}, {"name": "StatefulPartitionedCall/model/sequential_2/layer_normalization_1/Reshape/shape/3", "op": "Const", "attr": {"value": {"tensor": {"dtype": "DT_INT32", "tensorShape": {}}}, "dtype": {"type": "DT_INT32"}}}, {"name": "StatefulPartitionedCall/model/sequential_2/layer_normalization_1/ones/Const", "op": "Const", "attr": {"value": {"tensor": {"dtype": "DT_FLOAT", "tensorShape": {}}}, "dtype": {"type": "DT_FLOAT"}}}, {"name": "StatefulPartitionedCall/model/sequential_2/layer_normalization_1/strided_slice/stack", "op": "Const", "attr": {"value": {"tensor": {"dtype": "DT_INT32", "tensorShape": {"dim": [{"size": "1"}]}}}, "dtype": {"type": "DT_INT32"}}}, {"name": "StatefulPartitionedCall/model/sequential_2/layer_normalization_1/strided_slice/stack_1", "op": "Const", "attr": {"value": {"tensor": {"dtype": "DT_INT32", "tensorShape": {"dim": [{"size": "1"}]}}}, "dtype": {"type": "DT_INT32"}}}, {"name": "StatefulPartitionedCall/model/sequential_2/layer_normalization_1/strided_slice/stack_2", "op": "Const", "attr": {"value": {"tensor": {"dtype": "DT_INT32", "tensorShape": {"dim": [{"size": "1"}]}}}, "dtype": {"type": "DT_INT32"}}}, {"name": "StatefulPartitionedCall/model/sequential_2/layer_normalization_1/strided_slice_1/stack", "op": "Const", "attr": {"value": {"tensor": {"dtype": "DT_INT32", "tensorShape": {"dim": [{"size": "1"}]}}}, "dtype": {"type": "DT_INT32"}}}, {"name": "StatefulPartitionedCall/model/sequential_2/layer_normalization_1/strided_slice_1/stack_1", "op": "Const", "attr": {"dtype": {"type": "DT_INT32"}, "value": {"tensor": {"dtype": "DT_INT32", "tensorShape": {"dim": [{"size": "1"}]}}}}}, {"name": "StatefulPartitionedCall/model/sequential_2/layer_normalization_1/strided_slice_1/stack_2", "op": "Const", "attr": {"value": {"tensor": {"dtype": "DT_INT32", "tensorShape": {"dim": [{"size": "1"}]}}}, "dtype": {"type": "DT_INT32"}}}, {"name": "StatefulPartitionedCall/model/sequential_2/layer_normalization_1/strided_slice_2/stack", "op": "Const", "attr": {"value": {"tensor": {"dtype": "DT_INT32", "tensorShape": {"dim": [{"size": "1"}]}}}, "dtype": {"type": "DT_INT32"}}}, {"name": "StatefulPartitionedCall/model/sequential_2/layer_normalization_1/strided_slice_2/stack_1", "op": "Const", "attr": {"dtype": {"type": "DT_INT32"}, "value": {"tensor": {"dtype": "DT_INT32", "tensorShape": {"dim": [{"size": "1"}]}}}}}, {"name": "StatefulPartitionedCall/model/sequential_2/layer_normalization_1/strided_slice_2/stack_2", "op": "Const", "attr": {"dtype": {"type": "DT_INT32"}, "value": {"tensor": {"dtype": "DT_INT32", "tensorShape": {"dim": [{"size": "1"}]}}}}}, {"name": "StatefulPartitionedCall/model/sequential_2/layer_normalization_1/zeros/Const", "op": "Const", "attr": {"value": {"tensor": {"dtype": "DT_FLOAT", "tensorShape": {}}}, "dtype": {"type": "DT_FLOAT"}}}, {"name": "StatefulPartitionedCall/model/sequential_2/layer_normalization_1/Const", "op": "Const", "attr": {"dtype": {"type": "DT_FLOAT"}, "value": {"tensor": {"dtype": "DT_FLOAT", "tensorShape": {"dim": [{}]}}}}}, {"name": "StatefulPartitionedCall/model/sequential_2/layer_normalization_1/Const_1", "op": "Const", "attr": {"dtype": {"type": "DT_FLOAT"}, "value": {"tensor": {"dtype": "DT_FLOAT", "tensorShape": {"dim": [{}]}}}}}, {"name": "StatefulPartitionedCall/model/sequential_2/conv2d_2/Conv2D/ReadVariableOp", "op": "Const", "attr": {"value": {"tensor": {"dtype": "DT_FLOAT", "tensorShape": {"dim": [{"size": "4"}, {"size": "4"}, {"size": "64"}, {"size": "128"}]}}}, "dtype": {"type": "DT_FLOAT"}}}, {"name": "StatefulPartitionedCall/model/sequential_2/layer_normalization_1/mul_4/ReadVariableOp", "op": "Const", "attr": {"dtype": {"type": "DT_FLOAT"}, "value": {"tensor": {"dtype": "DT_FLOAT", "tensorShape": {"dim": [{"size": "128"}]}}}}}, {"name": "StatefulPartitionedCall/model/sequential_2/layer_normalization_1/add/ReadVariableOp", "op": "Const", "attr": {"value": {"tensor": {"dtype": "DT_FLOAT", "tensorShape": {"dim": [{"size": "128"}]}}}, "dtype": {"type": "DT_FLOAT"}}}, {"name": "StatefulPartitionedCall/model/concatenate_4/concat/axis", "op": "Const", "attr": {"dtype": {"type": "DT_INT32"}, "value": {"tensor": {"dtype": "DT_INT32", "tensorShape": {}}}}}, {"name": "StatefulPartitionedCall/model/sequential_13/layer_normalization_12/mul_4/ReadVariableOp", "op": "Const", "attr": {"dtype": {"type": "DT_FLOAT"}, "value": {"tensor": {"dtype": "DT_FLOAT", "tensorShape": {"dim": [{"size": "64"}]}}}}}, {"name": "StatefulPartitionedCall/model/sequential_13/layer_normalization_12/add/ReadVariableOp", "op": "Const", "attr": {"value": {"tensor": {"dtype": "DT_FLOAT", "tensorShape": {"dim": [{"size": "64"}]}}}, "dtype": {"type": "DT_FLOAT"}}}, {"name": "StatefulPartitionedCall/model/sequential_1/layer_normalization/Reshape/shape/0", "op": "Const", "attr": {"dtype": {"type": "DT_INT32"}, "value": {"tensor": {"dtype": "DT_INT32", "tensorShape": {}}}}}, {"name": "StatefulPartitionedCall/model/sequential_1/layer_normalization/strided_slice_3/stack", "op": "Const", "attr": {"value": {"tensor": {"dtype": "DT_INT32", "tensorShape": {"dim": [{"size": "1"}]}}}, "dtype": {"type": "DT_INT32"}}}, {"name": "StatefulPartitionedCall/model/sequential_1/layer_normalization/strided_slice_3/stack_1", "op": "Const", "attr": {"value": {"tensor": {"dtype": "DT_INT32", "tensorShape": {"dim": [{"size": "1"}]}}}, "dtype": {"type": "DT_INT32"}}}, {"name": "StatefulPartitionedCall/model/sequential_1/layer_normalization/strided_slice_3/stack_2", "op": "Const", "attr": {"dtype": {"type": "DT_INT32"}, "value": {"tensor": {"dtype": "DT_INT32", "tensorShape": {"dim": [{"size": "1"}]}}}}}, {"name": "StatefulPartitionedCall/model/sequential_1/layer_normalization/Reshape/shape/3", "op": "Const", "attr": {"value": {"tensor": {"dtype": "DT_INT32", "tensorShape": {}}}, "dtype": {"type": "DT_INT32"}}}, {"name": "StatefulPartitionedCall/model/sequential_1/layer_normalization/ones/Const", "op": "Const", "attr": {"value": {"tensor": {"dtype": "DT_FLOAT", "tensorShape": {}}}, "dtype": {"type": "DT_FLOAT"}}}, {"name": "StatefulPartitionedCall/model/sequential_1/layer_normalization/strided_slice/stack", "op": "Const", "attr": {"value": {"tensor": {"dtype": "DT_INT32", "tensorShape": {"dim": [{"size": "1"}]}}}, "dtype": {"type": "DT_INT32"}}}, {"name": "StatefulPartitionedCall/model/sequential_1/layer_normalization/strided_slice/stack_1", "op": "Const", "attr": {"dtype": {"type": "DT_INT32"}, "value": {"tensor": {"dtype": "DT_INT32", "tensorShape": {"dim": [{"size": "1"}]}}}}}, {"name": "StatefulPartitionedCall/model/sequential_1/layer_normalization/strided_slice/stack_2", "op": "Const", "attr": {"value": {"tensor": {"dtype": "DT_INT32", "tensorShape": {"dim": [{"size": "1"}]}}}, "dtype": {"type": "DT_INT32"}}}, {"name": "StatefulPartitionedCall/model/sequential_1/layer_normalization/strided_slice_1/stack", "op": "Const", "attr": {"dtype": {"type": "DT_INT32"}, "value": {"tensor": {"dtype": "DT_INT32", "tensorShape": {"dim": [{"size": "1"}]}}}}}, {"name": "StatefulPartitionedCall/model/sequential_1/layer_normalization/strided_slice_1/stack_1", "op": "Const", "attr": {"dtype": {"type": "DT_INT32"}, "value": {"tensor": {"dtype": "DT_INT32", "tensorShape": {"dim": [{"size": "1"}]}}}}}, {"name": "StatefulPartitionedCall/model/sequential_1/layer_normalization/strided_slice_1/stack_2", "op": "Const", "attr": {"dtype": {"type": "DT_INT32"}, "value": {"tensor": {"dtype": "DT_INT32", "tensorShape": {"dim": [{"size": "1"}]}}}}}, {"name": "StatefulPartitionedCall/model/sequential_1/layer_normalization/strided_slice_2/stack", "op": "Const", "attr": {"dtype": {"type": "DT_INT32"}, "value": {"tensor": {"dtype": "DT_INT32", "tensorShape": {"dim": [{"size": "1"}]}}}}}, {"name": "StatefulPartitionedCall/model/sequential_1/layer_normalization/strided_slice_2/stack_1", "op": "Const", "attr": {"value": {"tensor": {"dtype": "DT_INT32", "tensorShape": {"dim": [{"size": "1"}]}}}, "dtype": {"type": "DT_INT32"}}}, {"name": "StatefulPartitionedCall/model/sequential_1/layer_normalization/strided_slice_2/stack_2", "op": "Const", "attr": {"value": {"tensor": {"dtype": "DT_INT32", "tensorShape": {"dim": [{"size": "1"}]}}}, "dtype": {"type": "DT_INT32"}}}, {"name": "StatefulPartitionedCall/model/sequential_1/layer_normalization/zeros/Const", "op": "Const", "attr": {"dtype": {"type": "DT_FLOAT"}, "value": {"tensor": {"dtype": "DT_FLOAT", "tensorShape": {}}}}}, {"name": "StatefulPartitionedCall/model/sequential_1/layer_normalization/Const", "op": "Const", "attr": {"dtype": {"type": "DT_FLOAT"}, "value": {"tensor": {"dtype": "DT_FLOAT", "tensorShape": {"dim": [{}]}}}}}, {"name": "StatefulPartitionedCall/model/sequential_1/layer_normalization/Const_1", "op": "Const", "attr": {"value": {"tensor": {"dtype": "DT_FLOAT", "tensorShape": {"dim": [{}]}}}, "dtype": {"type": "DT_FLOAT"}}}, {"name": "StatefulPartitionedCall/model/sequential_1/conv2d_1/Conv2D/ReadVariableOp", "op": "Const", "attr": {"value": {"tensor": {"dtype": "DT_FLOAT", "tensorShape": {"dim": [{"size": "4"}, {"size": "4"}, {"size": "32"}, {"size": "64"}]}}}, "dtype": {"type": "DT_FLOAT"}}}, {"name": "StatefulPartitionedCall/model/sequential_1/layer_normalization/mul_4/ReadVariableOp", "op": "Const", "attr": {"value": {"tensor": {"dtype": "DT_FLOAT", "tensorShape": {"dim": [{"size": "64"}]}}}, "dtype": {"type": "DT_FLOAT"}}}, {"name": "StatefulPartitionedCall/model/sequential_1/layer_normalization/add/ReadVariableOp", "op": "Const", "attr": {"dtype": {"type": "DT_FLOAT"}, "value": {"tensor": {"dtype": "DT_FLOAT", "tensorShape": {"dim": [{"size": "64"}]}}}}}, {"name": "StatefulPartitionedCall/model/concatenate_5/concat/axis", "op": "Const", "attr": {"dtype": {"type": "DT_INT32"}, "value": {"tensor": {"dtype": "DT_INT32", "tensorShape": {}}}}}, {"name": "StatefulPartitionedCall/model/sequential_14/layer_normalization_13/mul_4/ReadVariableOp", "op": "Const", "attr": {"dtype": {"type": "DT_FLOAT"}, "value": {"tensor": {"dtype": "DT_FLOAT", "tensorShape": {"dim": [{"size": "32"}]}}}}}, {"name": "StatefulPartitionedCall/model/sequential_14/layer_normalization_13/add/ReadVariableOp", "op": "Const", "attr": {"value": {"tensor": {"dtype": "DT_FLOAT", "tensorShape": {"dim": [{"size": "32"}]}}}, "dtype": {"type": "DT_FLOAT"}}}, {"name": "StatefulPartitionedCall/model/sequential/conv2d/Conv2D/ReadVariableOp", "op": "Const", "attr": {"value": {"tensor": {"dtype": "DT_FLOAT", "tensorShape": {"dim": [{"size": "4"}, {"size": "4"}, {"size": "3"}, {"size": "32"}]}}}, "dtype": {"type": "DT_FLOAT"}}}, {"name": "StatefulPartitionedCall/model/concatenate_6/concat/axis", "op": "Const", "attr": {"value": {"tensor": {"dtype": "DT_INT32", "tensorShape": {}}}, "dtype": {"type": "DT_INT32"}}}, {"name": "StatefulPartitionedCall/model/conv2d_transpose_7/BiasAdd/ReadVariableOp", "op": "Const", "attr": {"value": {"tensor": {"dtype": "DT_FLOAT", "tensorShape": {"dim": [{"size": "3"}]}}}, "dtype": {"type": "DT_FLOAT"}}}, {"name": "input_1", "op": "Placeholder", "attr": {"shape": {"shape": {"dim": [{"size": "-1"}, {"size": "256"}, {"size": "256"}, {"size": "3"}]}}, "dtype": {"type": "DT_FLOAT"}}}, {"name": "StatefulPartitionedCall/model/sequential/conv2d/Conv2D", "op": "Conv2D", "input": ["input_1", "StatefulPartitionedCall/model/sequential/conv2d/Conv2D/ReadVariableOp"], "device": "/device:CPU:0", "attr": {"strides": {"list": {"i": ["1", "2", "2", "1"]}}, "padding": {"s": "U0FNRQ=="}, "data_format": {"s": "TkhXQw=="}, "explicit_paddings": {"list": {}}, "T": {"type": "DT_FLOAT"}, "use_cudnn_on_gpu": {"b": true}, "dilations": {"list": {"i": ["1", "1", "1", "1"]}}}}, {"name": "StatefulPartitionedCall/model/sequential/leaky_re_lu/LeakyRelu", "op": "LeakyRelu", "input": ["StatefulPartitionedCall/model/sequential/conv2d/Conv2D"], "attr": {"alpha": {"f": 0.3}, "T": {"type": "DT_FLOAT"}}}, {"name": "StatefulPartitionedCall/model/sequential_1/conv2d_1/Conv2D", "op": "Conv2D", "input": ["StatefulPartitionedCall/model/sequential/leaky_re_lu/LeakyRelu", "StatefulPartitionedCall/model/sequential_1/conv2d_1/Conv2D/ReadVariableOp"], "device": "/device:CPU:0", "attr": {"padding": {"s": "U0FNRQ=="}, "data_format": {"s": "TkhXQw=="}, "explicit_paddings": {"list": {}}, "dilations": {"list": {"i": ["1", "1", "1", "1"]}}, "strides": {"list": {"i": ["1", "2", "2", "1"]}}, "T": {"type": "DT_FLOAT"}, "use_cudnn_on_gpu": {"b": true}}}, {"name": "StatefulPartitionedCall/model/sequential_1/layer_normalization/Shape", "op": "Shape", "input": ["StatefulPartitionedCall/model/sequential_1/conv2d_1/Conv2D"], "attr": {"T": {"type": "DT_FLOAT"}, "out_type": {"type": "DT_INT32"}}}, {"name": "StatefulPartitionedCall/model/sequential_1/layer_normalization/strided_slice_3", "op": "StridedSlice", "input": ["StatefulPartitionedCall/model/sequential_1/layer_normalization/Shape", "StatefulPartitionedCall/model/sequential_1/layer_normalization/strided_slice_3/stack", "StatefulPartitionedCall/model/sequential_1/layer_normalization/strided_slice_3/stack_1", "StatefulPartitionedCall/model/sequential_1/layer_normalization/strided_slice_3/stack_2"], "attr": {"ellipsis_mask": {"i": "0"}, "begin_mask": {"i": "0"}, "new_axis_mask": {"i": "0"}, "Index": {"type": "DT_INT32"}, "shrink_axis_mask": {"i": "1"}, "T": {"type": "DT_INT32"}, "end_mask": {"i": "0"}}}, {"name": "StatefulPartitionedCall/model/sequential_1/layer_normalization/strided_slice", "op": "StridedSlice", "input": ["StatefulPartitionedCall/model/sequential_1/layer_normalization/Shape", "StatefulPartitionedCall/model/sequential_1/layer_normalization/strided_slice/stack", "StatefulPartitionedCall/model/sequential_1/layer_normalization/strided_slice/stack_1", "StatefulPartitionedCall/model/sequential_1/layer_normalization/strided_slice/stack_2"], "attr": {"T": {"type": "DT_INT32"}, "begin_mask": {"i": "0"}, "end_mask": {"i": "0"}, "shrink_axis_mask": {"i": "1"}, "Index": {"type": "DT_INT32"}, "new_axis_mask": {"i": "0"}, "ellipsis_mask": {"i": "0"}}}, {"name": "StatefulPartitionedCall/model/sequential_1/layer_normalization/strided_slice_1", "op": "StridedSlice", "input": ["StatefulPartitionedCall/model/sequential_1/layer_normalization/Shape", "StatefulPartitionedCall/model/sequential_1/layer_normalization/strided_slice_1/stack", "StatefulPartitionedCall/model/sequential_1/layer_normalization/strided_slice_1/stack_1", "StatefulPartitionedCall/model/sequential_1/layer_normalization/strided_slice_1/stack_2"], "attr": {"new_axis_mask": {"i": "0"}, "begin_mask": {"i": "0"}, "Index": {"type": "DT_INT32"}, "T": {"type": "DT_INT32"}, "end_mask": {"i": "0"}, "ellipsis_mask": {"i": "0"}, "shrink_axis_mask": {"i": "1"}}}, {"name": "StatefulPartitionedCall/model/sequential_1/layer_normalization/strided_slice_2", "op": "StridedSlice", "input": ["StatefulPartitionedCall/model/sequential_1/layer_normalization/Shape", "StatefulPartitionedCall/model/sequential_1/layer_normalization/strided_slice_2/stack", "StatefulPartitionedCall/model/sequential_1/layer_normalization/strided_slice_2/stack_1", "StatefulPartitionedCall/model/sequential_1/layer_normalization/strided_slice_2/stack_2"], "attr": {"new_axis_mask": {"i": "0"}, "begin_mask": {"i": "0"}, "end_mask": {"i": "0"}, "Index": {"type": "DT_INT32"}, "ellipsis_mask": {"i": "0"}, "T": {"type": "DT_INT32"}, "shrink_axis_mask": {"i": "1"}}}, {"name": "StatefulPartitionedCall/model/sequential_1/layer_normalization/mul_1", "op": "Mul", "input": ["StatefulPartitionedCall/model/sequential_1/layer_normalization/strided_slice", "StatefulPartitionedCall/model/sequential_1/layer_normalization/strided_slice_1"], "attr": {"T": {"type": "DT_INT32"}, "_grappler_ArithmeticOptimizer_MinimizeBroadcasts": {"b": true}}}, {"name": "StatefulPartitionedCall/model/sequential_1/layer_normalization/mul_2", "op": "Mul", "input": ["StatefulPartitionedCall/model/sequential_1/layer_normalization/mul_1", "StatefulPartitionedCall/model/sequential_1/layer_normalization/strided_slice_2"], "attr": {"T": {"type": "DT_INT32"}, "_grappler_ArithmeticOptimizer_MinimizeBroadcasts": {"b": true}}}, {"name": "StatefulPartitionedCall/model/sequential_1/layer_normalization/Reshape/shape", "op": "Pack", "input": ["StatefulPartitionedCall/model/sequential_1/layer_normalization/Reshape/shape/0", "StatefulPartitionedCall/model/sequential_1/layer_normalization/mul_2", "StatefulPartitionedCall/model/sequential_1/layer_normalization/strided_slice_3", "StatefulPartitionedCall/model/sequential_1/layer_normalization/Reshape/shape/3"], "attr": {"N": {"i": "4"}, "axis": {"i": "0"}, "T": {"type": "DT_INT32"}}}, {"name": "ConstantFolding/StatefulPartitionedCall/model/sequential_1/layer_normalization/ones/packed_const_axis", "op": "Const", "input": ["^StatefulPartitionedCall/model/sequential_1/layer_normalization/mul_2"], "attr": {"dtype": {"type": "DT_INT32"}, "value": {"tensor": {"dtype": "DT_INT32", "tensorShape": {}}}}}, {"name": "ConstantFolding/StatefulPartitionedCall/model/sequential_1/layer_normalization/zeros/packed_const_axis", "op": "Const", "input": ["^StatefulPartitionedCall/model/sequential_1/layer_normalization/mul_2"], "attr": {"dtype": {"type": "DT_INT32"}, "value": {"tensor": {"dtype": "DT_INT32", "tensorShape": {}}}}}, {"name": "StatefulPartitionedCall/model/sequential_1/layer_normalization/Reshape", "op": "Reshape", "input": ["StatefulPartitionedCall/model/sequential_1/conv2d_1/Conv2D", "StatefulPartitionedCall/model/sequential_1/layer_normalization/Reshape/shape"], "attr": {"T": {"type": "DT_FLOAT"}, "Tshape": {"type": "DT_INT32"}}}, {"name": "StatefulPartitionedCall/model/sequential_1/layer_normalization/ones/packed", "op": "ExpandDims", "input": ["StatefulPartitionedCall/model/sequential_1/layer_normalization/mul_2", "ConstantFolding/StatefulPartitionedCall/model/sequential_1/layer_normalization/ones/packed_const_axis"], "attr": {"T": {"type": "DT_INT32"}, "Tdim": {"type": "DT_INT32"}}}, {"name": "StatefulPartitionedCall/model/sequential_1/layer_normalization/zeros/packed", "op": "ExpandDims", "input": ["StatefulPartitionedCall/model/sequential_1/layer_normalization/mul_2", "ConstantFolding/StatefulPartitionedCall/model/sequential_1/layer_normalization/zeros/packed_const_axis"], "attr": {"T": {"type": "DT_INT32"}, "Tdim": {"type": "DT_INT32"}}}, {"name": "StatefulPartitionedCall/model/sequential_1/layer_normalization/ones", "op": "Fill", "input": ["StatefulPartitionedCall/model/sequential_1/layer_normalization/ones/packed", "StatefulPartitionedCall/model/sequential_1/layer_normalization/ones/Const"], "attr": {"T": {"type": "DT_FLOAT"}, "index_type": {"type": "DT_INT32"}}}, {"name": "StatefulPartitionedCall/model/sequential_1/layer_normalization/zeros", "op": "Fill", "input": ["StatefulPartitionedCall/model/sequential_1/layer_normalization/zeros/packed", "StatefulPartitionedCall/model/sequential_1/layer_normalization/zeros/Const"], "attr": {"T": {"type": "DT_FLOAT"}, "index_type": {"type": "DT_INT32"}}}, {"name": "StatefulPartitionedCall/model/sequential_1/layer_normalization/FusedBatchNormV3", "op": "FusedBatchNormV3", "input": ["StatefulPartitionedCall/model/sequential_1/layer_normalization/Reshape", "StatefulPartitionedCall/model/sequential_1/layer_normalization/ones", "StatefulPartitionedCall/model/sequential_1/layer_normalization/zeros", "StatefulPartitionedCall/model/sequential_1/layer_normalization/Const", "StatefulPartitionedCall/model/sequential_1/layer_normalization/Const_1"], "attr": {"T": {"type": "DT_FLOAT"}, "exponential_avg_factor": {"f": 1.0}, "is_training": {"b": true}, "epsilon": {"f": 0.001}, "U": {"type": "DT_FLOAT"}, "data_format": {"s": "TkNIVw=="}}}, {"name": "StatefulPartitionedCall/model/sequential_1/layer_normalization/Reshape_1", "op": "Reshape", "input": ["StatefulPartitionedCall/model/sequential_1/layer_normalization/FusedBatchNormV3", "StatefulPartitionedCall/model/sequential_1/layer_normalization/Shape"], "attr": {"T": {"type": "DT_FLOAT"}, "Tshape": {"type": "DT_INT32"}}}, {"name": "StatefulPartitionedCall/model/sequential_1/layer_normalization/mul_4", "op": "Mul", "input": ["StatefulPartitionedCall/model/sequential_1/layer_normalization/Reshape_1", "StatefulPartitionedCall/model/sequential_1/layer_normalization/mul_4/ReadVariableOp"], "attr": {"T": {"type": "DT_FLOAT"}}}, {"name": "StatefulPartitionedCall/model/sequential_1/layer_normalization/add", "op": "AddV2", "input": ["StatefulPartitionedCall/model/sequential_1/layer_normalization/mul_4", "StatefulPartitionedCall/model/sequential_1/layer_normalization/add/ReadVariableOp"], "attr": {"T": {"type": "DT_FLOAT"}}}, {"name": "StatefulPartitionedCall/model/sequential_1/leaky_re_lu_1/LeakyRelu", "op": "LeakyRelu", "input": ["StatefulPartitionedCall/model/sequential_1/layer_normalization/add"], "attr": {"T": {"type": "DT_FLOAT"}, "alpha": {"f": 0.3}}}, {"name": "StatefulPartitionedCall/model/sequential_2/conv2d_2/Conv2D", "op": "Conv2D", "input": ["StatefulPartitionedCall/model/sequential_1/leaky_re_lu_1/LeakyRelu", "StatefulPartitionedCall/model/sequential_2/conv2d_2/Conv2D/ReadVariableOp"], "device": "/device:CPU:0", "attr": {"explicit_paddings": {"list": {}}, "data_format": {"s": "TkhXQw=="}, "T": {"type": "DT_FLOAT"}, "dilations": {"list": {"i": ["1", "1", "1", "1"]}}, "strides": {"list": {"i": ["1", "2", "2", "1"]}}, "padding": {"s": "U0FNRQ=="}, "use_cudnn_on_gpu": {"b": true}}}, {"name": "StatefulPartitionedCall/model/sequential_2/layer_normalization_1/Shape", "op": "Shape", "input": ["StatefulPartitionedCall/model/sequential_2/conv2d_2/Conv2D"], "attr": {"T": {"type": "DT_FLOAT"}, "out_type": {"type": "DT_INT32"}}}, {"name": "StatefulPartitionedCall/model/sequential_2/layer_normalization_1/strided_slice_3", "op": "StridedSlice", "input": ["StatefulPartitionedCall/model/sequential_2/layer_normalization_1/Shape", "StatefulPartitionedCall/model/sequential_2/layer_normalization_1/strided_slice_3/stack", "StatefulPartitionedCall/model/sequential_2/layer_normalization_1/strided_slice_3/stack_1", "StatefulPartitionedCall/model/sequential_2/layer_normalization_1/strided_slice_3/stack_2"], "attr": {"end_mask": {"i": "0"}, "Index": {"type": "DT_INT32"}, "ellipsis_mask": {"i": "0"}, "T": {"type": "DT_INT32"}, "new_axis_mask": {"i": "0"}, "shrink_axis_mask": {"i": "1"}, "begin_mask": {"i": "0"}}}, {"name": "StatefulPartitionedCall/model/sequential_2/layer_normalization_1/strided_slice", "op": "StridedSlice", "input": ["StatefulPartitionedCall/model/sequential_2/layer_normalization_1/Shape", "StatefulPartitionedCall/model/sequential_2/layer_normalization_1/strided_slice/stack", "StatefulPartitionedCall/model/sequential_2/layer_normalization_1/strided_slice/stack_1", "StatefulPartitionedCall/model/sequential_2/layer_normalization_1/strided_slice/stack_2"], "attr": {"shrink_axis_mask": {"i": "1"}, "end_mask": {"i": "0"}, "begin_mask": {"i": "0"}, "T": {"type": "DT_INT32"}, "ellipsis_mask": {"i": "0"}, "new_axis_mask": {"i": "0"}, "Index": {"type": "DT_INT32"}}}, {"name": "StatefulPartitionedCall/model/sequential_2/layer_normalization_1/strided_slice_1", "op": "StridedSlice", "input": ["StatefulPartitionedCall/model/sequential_2/layer_normalization_1/Shape", "StatefulPartitionedCall/model/sequential_2/layer_normalization_1/strided_slice_1/stack", "StatefulPartitionedCall/model/sequential_2/layer_normalization_1/strided_slice_1/stack_1", "StatefulPartitionedCall/model/sequential_2/layer_normalization_1/strided_slice_1/stack_2"], "attr": {"Index": {"type": "DT_INT32"}, "T": {"type": "DT_INT32"}, "new_axis_mask": {"i": "0"}, "begin_mask": {"i": "0"}, "shrink_axis_mask": {"i": "1"}, "end_mask": {"i": "0"}, "ellipsis_mask": {"i": "0"}}}, {"name": "StatefulPartitionedCall/model/sequential_2/layer_normalization_1/strided_slice_2", "op": "StridedSlice", "input": ["StatefulPartitionedCall/model/sequential_2/layer_normalization_1/Shape", "StatefulPartitionedCall/model/sequential_2/layer_normalization_1/strided_slice_2/stack", "StatefulPartitionedCall/model/sequential_2/layer_normalization_1/strided_slice_2/stack_1", "StatefulPartitionedCall/model/sequential_2/layer_normalization_1/strided_slice_2/stack_2"], "attr": {"T": {"type": "DT_INT32"}, "shrink_axis_mask": {"i": "1"}, "Index": {"type": "DT_INT32"}, "new_axis_mask": {"i": "0"}, "ellipsis_mask": {"i": "0"}, "end_mask": {"i": "0"}, "begin_mask": {"i": "0"}}}, {"name": "StatefulPartitionedCall/model/sequential_2/layer_normalization_1/mul_1", "op": "Mul", "input": ["StatefulPartitionedCall/model/sequential_2/layer_normalization_1/strided_slice", "StatefulPartitionedCall/model/sequential_2/layer_normalization_1/strided_slice_1"], "attr": {"T": {"type": "DT_INT32"}, "_grappler_ArithmeticOptimizer_MinimizeBroadcasts": {"b": true}}}, {"name": "StatefulPartitionedCall/model/sequential_2/layer_normalization_1/mul_2", "op": "Mul", "input": ["StatefulPartitionedCall/model/sequential_2/layer_normalization_1/mul_1", "StatefulPartitionedCall/model/sequential_2/layer_normalization_1/strided_slice_2"], "attr": {"T": {"type": "DT_INT32"}, "_grappler_ArithmeticOptimizer_MinimizeBroadcasts": {"b": true}}}, {"name": "StatefulPartitionedCall/model/sequential_2/layer_normalization_1/Reshape/shape", "op": "Pack", "input": ["StatefulPartitionedCall/model/sequential_2/layer_normalization_1/Reshape/shape/0", "StatefulPartitionedCall/model/sequential_2/layer_normalization_1/mul_2", "StatefulPartitionedCall/model/sequential_2/layer_normalization_1/strided_slice_3", "StatefulPartitionedCall/model/sequential_2/layer_normalization_1/Reshape/shape/3"], "attr": {"N": {"i": "4"}, "axis": {"i": "0"}, "T": {"type": "DT_INT32"}}}, {"name": "ConstantFolding/StatefulPartitionedCall/model/sequential_2/layer_normalization_1/ones/packed_const_axis", "op": "Const", "input": ["^StatefulPartitionedCall/model/sequential_2/layer_normalization_1/mul_2"], "attr": {"dtype": {"type": "DT_INT32"}, "value": {"tensor": {"dtype": "DT_INT32", "tensorShape": {}}}}}, {"name": "ConstantFolding/StatefulPartitionedCall/model/sequential_2/layer_normalization_1/zeros/packed_const_axis", "op": "Const", "input": ["^StatefulPartitionedCall/model/sequential_2/layer_normalization_1/mul_2"], "attr": {"value": {"tensor": {"dtype": "DT_INT32", "tensorShape": {}}}, "dtype": {"type": "DT_INT32"}}}, {"name": "StatefulPartitionedCall/model/sequential_2/layer_normalization_1/Reshape", "op": "Reshape", "input": ["StatefulPartitionedCall/model/sequential_2/conv2d_2/Conv2D", "StatefulPartitionedCall/model/sequential_2/layer_normalization_1/Reshape/shape"], "attr": {"Tshape": {"type": "DT_INT32"}, "T": {"type": "DT_FLOAT"}}}, {"name": "StatefulPartitionedCall/model/sequential_2/layer_normalization_1/ones/packed", "op": "ExpandDims", "input": ["StatefulPartitionedCall/model/sequential_2/layer_normalization_1/mul_2", "ConstantFolding/StatefulPartitionedCall/model/sequential_2/layer_normalization_1/ones/packed_const_axis"], "attr": {"Tdim": {"type": "DT_INT32"}, "T": {"type": "DT_INT32"}}}, {"name": "StatefulPartitionedCall/model/sequential_2/layer_normalization_1/zeros/packed", "op": "ExpandDims", "input": ["StatefulPartitionedCall/model/sequential_2/layer_normalization_1/mul_2", "ConstantFolding/StatefulPartitionedCall/model/sequential_2/layer_normalization_1/zeros/packed_const_axis"], "attr": {"T": {"type": "DT_INT32"}, "Tdim": {"type": "DT_INT32"}}}, {"name": "StatefulPartitionedCall/model/sequential_2/layer_normalization_1/ones", "op": "Fill", "input": ["StatefulPartitionedCall/model/sequential_2/layer_normalization_1/ones/packed", "StatefulPartitionedCall/model/sequential_2/layer_normalization_1/ones/Const"], "attr": {"T": {"type": "DT_FLOAT"}, "index_type": {"type": "DT_INT32"}}}, {"name": "StatefulPartitionedCall/model/sequential_2/layer_normalization_1/zeros", "op": "Fill", "input": ["StatefulPartitionedCall/model/sequential_2/layer_normalization_1/zeros/packed", "StatefulPartitionedCall/model/sequential_2/layer_normalization_1/zeros/Const"], "attr": {"T": {"type": "DT_FLOAT"}, "index_type": {"type": "DT_INT32"}}}, {"name": "StatefulPartitionedCall/model/sequential_2/layer_normalization_1/FusedBatchNormV3", "op": "FusedBatchNormV3", "input": ["StatefulPartitionedCall/model/sequential_2/layer_normalization_1/Reshape", "StatefulPartitionedCall/model/sequential_2/layer_normalization_1/ones", "StatefulPartitionedCall/model/sequential_2/layer_normalization_1/zeros", "StatefulPartitionedCall/model/sequential_2/layer_normalization_1/Const", "StatefulPartitionedCall/model/sequential_2/layer_normalization_1/Const_1"], "attr": {"T": {"type": "DT_FLOAT"}, "epsilon": {"f": 0.001}, "data_format": {"s": "TkNIVw=="}, "U": {"type": "DT_FLOAT"}, "exponential_avg_factor": {"f": 1.0}, "is_training": {"b": true}}}, {"name": "StatefulPartitionedCall/model/sequential_2/layer_normalization_1/Reshape_1", "op": "Reshape", "input": ["StatefulPartitionedCall/model/sequential_2/layer_normalization_1/FusedBatchNormV3", "StatefulPartitionedCall/model/sequential_2/layer_normalization_1/Shape"], "attr": {"Tshape": {"type": "DT_INT32"}, "T": {"type": "DT_FLOAT"}}}, {"name": "StatefulPartitionedCall/model/sequential_2/layer_normalization_1/mul_4", "op": "Mul", "input": ["StatefulPartitionedCall/model/sequential_2/layer_normalization_1/Reshape_1", "StatefulPartitionedCall/model/sequential_2/layer_normalization_1/mul_4/ReadVariableOp"], "attr": {"T": {"type": "DT_FLOAT"}}}, {"name": "StatefulPartitionedCall/model/sequential_2/layer_normalization_1/add", "op": "AddV2", "input": ["StatefulPartitionedCall/model/sequential_2/layer_normalization_1/mul_4", "StatefulPartitionedCall/model/sequential_2/layer_normalization_1/add/ReadVariableOp"], "attr": {"T": {"type": "DT_FLOAT"}}}, {"name": "StatefulPartitionedCall/model/sequential_2/leaky_re_lu_2/LeakyRelu", "op": "LeakyRelu", "input": ["StatefulPartitionedCall/model/sequential_2/layer_normalization_1/add"], "attr": {"alpha": {"f": 0.3}, "T": {"type": "DT_FLOAT"}}}, {"name": "StatefulPartitionedCall/model/sequential_3/conv2d_3/Conv2D", "op": "Conv2D", "input": ["StatefulPartitionedCall/model/sequential_2/leaky_re_lu_2/LeakyRelu", "StatefulPartitionedCall/model/sequential_3/conv2d_3/Conv2D/ReadVariableOp"], "device": "/device:CPU:0", "attr": {"padding": {"s": "U0FNRQ=="}, "strides": {"list": {"i": ["1", "2", "2", "1"]}}, "use_cudnn_on_gpu": {"b": true}, "T": {"type": "DT_FLOAT"}, "explicit_paddings": {"list": {}}, "dilations": {"list": {"i": ["1", "1", "1", "1"]}}, "data_format": {"s": "TkhXQw=="}}}, {"name": "StatefulPartitionedCall/model/sequential_3/layer_normalization_2/Shape", "op": "Shape", "input": ["StatefulPartitionedCall/model/sequential_3/conv2d_3/Conv2D"], "attr": {"T": {"type": "DT_FLOAT"}, "out_type": {"type": "DT_INT32"}}}, {"name": "StatefulPartitionedCall/model/sequential_3/layer_normalization_2/strided_slice_3", "op": "StridedSlice", "input": ["StatefulPartitionedCall/model/sequential_3/layer_normalization_2/Shape", "StatefulPartitionedCall/model/sequential_3/layer_normalization_2/strided_slice_3/stack", "StatefulPartitionedCall/model/sequential_3/layer_normalization_2/strided_slice_3/stack_1", "StatefulPartitionedCall/model/sequential_3/layer_normalization_2/strided_slice_3/stack_2"], "attr": {"ellipsis_mask": {"i": "0"}, "T": {"type": "DT_INT32"}, "end_mask": {"i": "0"}, "new_axis_mask": {"i": "0"}, "Index": {"type": "DT_INT32"}, "begin_mask": {"i": "0"}, "shrink_axis_mask": {"i": "1"}}}, {"name": "StatefulPartitionedCall/model/sequential_3/layer_normalization_2/strided_slice", "op": "StridedSlice", "input": ["StatefulPartitionedCall/model/sequential_3/layer_normalization_2/Shape", "StatefulPartitionedCall/model/sequential_3/layer_normalization_2/strided_slice/stack", "StatefulPartitionedCall/model/sequential_3/layer_normalization_2/strided_slice/stack_1", "StatefulPartitionedCall/model/sequential_3/layer_normalization_2/strided_slice/stack_2"], "attr": {"ellipsis_mask": {"i": "0"}, "begin_mask": {"i": "0"}, "end_mask": {"i": "0"}, "Index": {"type": "DT_INT32"}, "T": {"type": "DT_INT32"}, "shrink_axis_mask": {"i": "1"}, "new_axis_mask": {"i": "0"}}}, {"name": "StatefulPartitionedCall/model/sequential_3/layer_normalization_2/strided_slice_1", "op": "StridedSlice", "input": ["StatefulPartitionedCall/model/sequential_3/layer_normalization_2/Shape", "StatefulPartitionedCall/model/sequential_3/layer_normalization_2/strided_slice_1/stack", "StatefulPartitionedCall/model/sequential_3/layer_normalization_2/strided_slice_1/stack_1", "StatefulPartitionedCall/model/sequential_3/layer_normalization_2/strided_slice_1/stack_2"], "attr": {"shrink_axis_mask": {"i": "1"}, "end_mask": {"i": "0"}, "T": {"type": "DT_INT32"}, "Index": {"type": "DT_INT32"}, "ellipsis_mask": {"i": "0"}, "new_axis_mask": {"i": "0"}, "begin_mask": {"i": "0"}}}, {"name": "StatefulPartitionedCall/model/sequential_3/layer_normalization_2/strided_slice_2", "op": "StridedSlice", "input": ["StatefulPartitionedCall/model/sequential_3/layer_normalization_2/Shape", "StatefulPartitionedCall/model/sequential_3/layer_normalization_2/strided_slice_2/stack", "StatefulPartitionedCall/model/sequential_3/layer_normalization_2/strided_slice_2/stack_1", "StatefulPartitionedCall/model/sequential_3/layer_normalization_2/strided_slice_2/stack_2"], "attr": {"ellipsis_mask": {"i": "0"}, "begin_mask": {"i": "0"}, "new_axis_mask": {"i": "0"}, "shrink_axis_mask": {"i": "1"}, "T": {"type": "DT_INT32"}, "end_mask": {"i": "0"}, "Index": {"type": "DT_INT32"}}}, {"name": "StatefulPartitionedCall/model/sequential_3/layer_normalization_2/mul_1", "op": "Mul", "input": ["StatefulPartitionedCall/model/sequential_3/layer_normalization_2/strided_slice", "StatefulPartitionedCall/model/sequential_3/layer_normalization_2/strided_slice_1"], "attr": {"_grappler_ArithmeticOptimizer_MinimizeBroadcasts": {"b": true}, "T": {"type": "DT_INT32"}}}, {"name": "StatefulPartitionedCall/model/sequential_3/layer_normalization_2/mul_2", "op": "Mul", "input": ["StatefulPartitionedCall/model/sequential_3/layer_normalization_2/mul_1", "StatefulPartitionedCall/model/sequential_3/layer_normalization_2/strided_slice_2"], "attr": {"_grappler_ArithmeticOptimizer_MinimizeBroadcasts": {"b": true}, "T": {"type": "DT_INT32"}}}, {"name": "StatefulPartitionedCall/model/sequential_3/layer_normalization_2/Reshape/shape", "op": "Pack", "input": ["StatefulPartitionedCall/model/sequential_3/layer_normalization_2/Reshape/shape/0", "StatefulPartitionedCall/model/sequential_3/layer_normalization_2/mul_2", "StatefulPartitionedCall/model/sequential_3/layer_normalization_2/strided_slice_3", "StatefulPartitionedCall/model/sequential_3/layer_normalization_2/Reshape/shape/3"], "attr": {"axis": {"i": "0"}, "T": {"type": "DT_INT32"}, "N": {"i": "4"}}}, {"name": "ConstantFolding/StatefulPartitionedCall/model/sequential_3/layer_normalization_2/ones/packed_const_axis", "op": "Const", "input": ["^StatefulPartitionedCall/model/sequential_3/layer_normalization_2/mul_2"], "attr": {"value": {"tensor": {"dtype": "DT_INT32", "tensorShape": {}}}, "dtype": {"type": "DT_INT32"}}}, {"name": "ConstantFolding/StatefulPartitionedCall/model/sequential_3/layer_normalization_2/zeros/packed_const_axis", "op": "Const", "input": ["^StatefulPartitionedCall/model/sequential_3/layer_normalization_2/mul_2"], "attr": {"value": {"tensor": {"dtype": "DT_INT32", "tensorShape": {}}}, "dtype": {"type": "DT_INT32"}}}, {"name": "StatefulPartitionedCall/model/sequential_3/layer_normalization_2/Reshape", "op": "Reshape", "input": ["StatefulPartitionedCall/model/sequential_3/conv2d_3/Conv2D", "StatefulPartitionedCall/model/sequential_3/layer_normalization_2/Reshape/shape"], "attr": {"T": {"type": "DT_FLOAT"}, "Tshape": {"type": "DT_INT32"}}}, {"name": "StatefulPartitionedCall/model/sequential_3/layer_normalization_2/ones/packed", "op": "ExpandDims", "input": ["StatefulPartitionedCall/model/sequential_3/layer_normalization_2/mul_2", "ConstantFolding/StatefulPartitionedCall/model/sequential_3/layer_normalization_2/ones/packed_const_axis"], "attr": {"Tdim": {"type": "DT_INT32"}, "T": {"type": "DT_INT32"}}}, {"name": "StatefulPartitionedCall/model/sequential_3/layer_normalization_2/zeros/packed", "op": "ExpandDims", "input": ["StatefulPartitionedCall/model/sequential_3/layer_normalization_2/mul_2", "ConstantFolding/StatefulPartitionedCall/model/sequential_3/layer_normalization_2/zeros/packed_const_axis"], "attr": {"Tdim": {"type": "DT_INT32"}, "T": {"type": "DT_INT32"}}}, {"name": "StatefulPartitionedCall/model/sequential_3/layer_normalization_2/ones", "op": "Fill", "input": ["StatefulPartitionedCall/model/sequential_3/layer_normalization_2/ones/packed", "StatefulPartitionedCall/model/sequential_3/layer_normalization_2/ones/Const"], "attr": {"T": {"type": "DT_FLOAT"}, "index_type": {"type": "DT_INT32"}}}, {"name": "StatefulPartitionedCall/model/sequential_3/layer_normalization_2/zeros", "op": "Fill", "input": ["StatefulPartitionedCall/model/sequential_3/layer_normalization_2/zeros/packed", "StatefulPartitionedCall/model/sequential_3/layer_normalization_2/zeros/Const"], "attr": {"index_type": {"type": "DT_INT32"}, "T": {"type": "DT_FLOAT"}}}, {"name": "StatefulPartitionedCall/model/sequential_3/layer_normalization_2/FusedBatchNormV3", "op": "FusedBatchNormV3", "input": ["StatefulPartitionedCall/model/sequential_3/layer_normalization_2/Reshape", "StatefulPartitionedCall/model/sequential_3/layer_normalization_2/ones", "StatefulPartitionedCall/model/sequential_3/layer_normalization_2/zeros", "StatefulPartitionedCall/model/sequential_3/layer_normalization_2/Const", "StatefulPartitionedCall/model/sequential_3/layer_normalization_2/Const_1"], "attr": {"exponential_avg_factor": {"f": 1.0}, "U": {"type": "DT_FLOAT"}, "is_training": {"b": true}, "data_format": {"s": "TkNIVw=="}, "T": {"type": "DT_FLOAT"}, "epsilon": {"f": 0.001}}}, {"name": "StatefulPartitionedCall/model/sequential_3/layer_normalization_2/Reshape_1", "op": "Reshape", "input": ["StatefulPartitionedCall/model/sequential_3/layer_normalization_2/FusedBatchNormV3", "StatefulPartitionedCall/model/sequential_3/layer_normalization_2/Shape"], "attr": {"T": {"type": "DT_FLOAT"}, "Tshape": {"type": "DT_INT32"}}}, {"name": "StatefulPartitionedCall/model/sequential_3/layer_normalization_2/mul_4", "op": "Mul", "input": ["StatefulPartitionedCall/model/sequential_3/layer_normalization_2/Reshape_1", "StatefulPartitionedCall/model/sequential_3/layer_normalization_2/mul_4/ReadVariableOp"], "attr": {"T": {"type": "DT_FLOAT"}}}, {"name": "StatefulPartitionedCall/model/sequential_3/layer_normalization_2/add", "op": "AddV2", "input": ["StatefulPartitionedCall/model/sequential_3/layer_normalization_2/mul_4", "StatefulPartitionedCall/model/sequential_3/layer_normalization_2/add/ReadVariableOp"], "attr": {"T": {"type": "DT_FLOAT"}}}, {"name": "StatefulPartitionedCall/model/sequential_3/leaky_re_lu_3/LeakyRelu", "op": "LeakyRelu", "input": ["StatefulPartitionedCall/model/sequential_3/layer_normalization_2/add"], "attr": {"T": {"type": "DT_FLOAT"}, "alpha": {"f": 0.3}}}, {"name": "StatefulPartitionedCall/model/sequential_4/conv2d_4/Conv2D", "op": "Conv2D", "input": ["StatefulPartitionedCall/model/sequential_3/leaky_re_lu_3/LeakyRelu", "StatefulPartitionedCall/model/sequential_4/conv2d_4/Conv2D/ReadVariableOp"], "device": "/device:CPU:0", "attr": {"dilations": {"list": {"i": ["1", "1", "1", "1"]}}, "strides": {"list": {"i": ["1", "2", "2", "1"]}}, "T": {"type": "DT_FLOAT"}, "use_cudnn_on_gpu": {"b": true}, "explicit_paddings": {"list": {}}, "padding": {"s": "U0FNRQ=="}, "data_format": {"s": "TkhXQw=="}}}, {"name": "StatefulPartitionedCall/model/sequential_4/layer_normalization_3/Shape", "op": "Shape", "input": ["StatefulPartitionedCall/model/sequential_4/conv2d_4/Conv2D"], "attr": {"out_type": {"type": "DT_INT32"}, "T": {"type": "DT_FLOAT"}}}, {"name": "StatefulPartitionedCall/model/sequential_4/layer_normalization_3/strided_slice_3", "op": "StridedSlice", "input": ["StatefulPartitionedCall/model/sequential_4/layer_normalization_3/Shape", "StatefulPartitionedCall/model/sequential_4/layer_normalization_3/strided_slice_3/stack", "StatefulPartitionedCall/model/sequential_4/layer_normalization_3/strided_slice_3/stack_1", "StatefulPartitionedCall/model/sequential_4/layer_normalization_3/strided_slice_3/stack_2"], "attr": {"shrink_axis_mask": {"i": "1"}, "ellipsis_mask": {"i": "0"}, "T": {"type": "DT_INT32"}, "Index": {"type": "DT_INT32"}, "end_mask": {"i": "0"}, "new_axis_mask": {"i": "0"}, "begin_mask": {"i": "0"}}}, {"name": "StatefulPartitionedCall/model/sequential_4/layer_normalization_3/strided_slice", "op": "StridedSlice", "input": ["StatefulPartitionedCall/model/sequential_4/layer_normalization_3/Shape", "StatefulPartitionedCall/model/sequential_4/layer_normalization_3/strided_slice/stack", "StatefulPartitionedCall/model/sequential_4/layer_normalization_3/strided_slice/stack_1", "StatefulPartitionedCall/model/sequential_4/layer_normalization_3/strided_slice/stack_2"], "attr": {"T": {"type": "DT_INT32"}, "end_mask": {"i": "0"}, "Index": {"type": "DT_INT32"}, "new_axis_mask": {"i": "0"}, "ellipsis_mask": {"i": "0"}, "begin_mask": {"i": "0"}, "shrink_axis_mask": {"i": "1"}}}, {"name": "StatefulPartitionedCall/model/sequential_4/layer_normalization_3/strided_slice_1", "op": "StridedSlice", "input": ["StatefulPartitionedCall/model/sequential_4/layer_normalization_3/Shape", "StatefulPartitionedCall/model/sequential_4/layer_normalization_3/strided_slice_1/stack", "StatefulPartitionedCall/model/sequential_4/layer_normalization_3/strided_slice_1/stack_1", "StatefulPartitionedCall/model/sequential_4/layer_normalization_3/strided_slice_1/stack_2"], "attr": {"ellipsis_mask": {"i": "0"}, "shrink_axis_mask": {"i": "1"}, "T": {"type": "DT_INT32"}, "begin_mask": {"i": "0"}, "end_mask": {"i": "0"}, "new_axis_mask": {"i": "0"}, "Index": {"type": "DT_INT32"}}}, {"name": "StatefulPartitionedCall/model/sequential_4/layer_normalization_3/strided_slice_2", "op": "StridedSlice", "input": ["StatefulPartitionedCall/model/sequential_4/layer_normalization_3/Shape", "StatefulPartitionedCall/model/sequential_4/layer_normalization_3/strided_slice_2/stack", "StatefulPartitionedCall/model/sequential_4/layer_normalization_3/strided_slice_2/stack_1", "StatefulPartitionedCall/model/sequential_4/layer_normalization_3/strided_slice_2/stack_2"], "attr": {"ellipsis_mask": {"i": "0"}, "Index": {"type": "DT_INT32"}, "T": {"type": "DT_INT32"}, "begin_mask": {"i": "0"}, "new_axis_mask": {"i": "0"}, "end_mask": {"i": "0"}, "shrink_axis_mask": {"i": "1"}}}, {"name": "StatefulPartitionedCall/model/sequential_4/layer_normalization_3/mul_1", "op": "Mul", "input": ["StatefulPartitionedCall/model/sequential_4/layer_normalization_3/strided_slice", "StatefulPartitionedCall/model/sequential_4/layer_normalization_3/strided_slice_1"], "attr": {"T": {"type": "DT_INT32"}, "_grappler_ArithmeticOptimizer_MinimizeBroadcasts": {"b": true}}}, {"name": "StatefulPartitionedCall/model/sequential_4/layer_normalization_3/mul_2", "op": "Mul", "input": ["StatefulPartitionedCall/model/sequential_4/layer_normalization_3/mul_1", "StatefulPartitionedCall/model/sequential_4/layer_normalization_3/strided_slice_2"], "attr": {"T": {"type": "DT_INT32"}, "_grappler_ArithmeticOptimizer_MinimizeBroadcasts": {"b": true}}}, {"name": "StatefulPartitionedCall/model/sequential_4/layer_normalization_3/Reshape/shape", "op": "Pack", "input": ["StatefulPartitionedCall/model/sequential_4/layer_normalization_3/Reshape/shape/0", "StatefulPartitionedCall/model/sequential_4/layer_normalization_3/mul_2", "StatefulPartitionedCall/model/sequential_4/layer_normalization_3/strided_slice_3", "StatefulPartitionedCall/model/sequential_4/layer_normalization_3/Reshape/shape/3"], "attr": {"N": {"i": "4"}, "T": {"type": "DT_INT32"}, "axis": {"i": "0"}}}, {"name": "ConstantFolding/StatefulPartitionedCall/model/sequential_4/layer_normalization_3/ones/packed_const_axis", "op": "Const", "input": ["^StatefulPartitionedCall/model/sequential_4/layer_normalization_3/mul_2"], "attr": {"value": {"tensor": {"dtype": "DT_INT32", "tensorShape": {}}}, "dtype": {"type": "DT_INT32"}}}, {"name": "ConstantFolding/StatefulPartitionedCall/model/sequential_4/layer_normalization_3/zeros/packed_const_axis", "op": "Const", "input": ["^StatefulPartitionedCall/model/sequential_4/layer_normalization_3/mul_2"], "attr": {"value": {"tensor": {"dtype": "DT_INT32", "tensorShape": {}}}, "dtype": {"type": "DT_INT32"}}}, {"name": "StatefulPartitionedCall/model/sequential_4/layer_normalization_3/Reshape", "op": "Reshape", "input": ["StatefulPartitionedCall/model/sequential_4/conv2d_4/Conv2D", "StatefulPartitionedCall/model/sequential_4/layer_normalization_3/Reshape/shape"], "attr": {"Tshape": {"type": "DT_INT32"}, "T": {"type": "DT_FLOAT"}}}, {"name": "StatefulPartitionedCall/model/sequential_4/layer_normalization_3/ones/packed", "op": "ExpandDims", "input": ["StatefulPartitionedCall/model/sequential_4/layer_normalization_3/mul_2", "ConstantFolding/StatefulPartitionedCall/model/sequential_4/layer_normalization_3/ones/packed_const_axis"], "attr": {"Tdim": {"type": "DT_INT32"}, "T": {"type": "DT_INT32"}}}, {"name": "StatefulPartitionedCall/model/sequential_4/layer_normalization_3/zeros/packed", "op": "ExpandDims", "input": ["StatefulPartitionedCall/model/sequential_4/layer_normalization_3/mul_2", "ConstantFolding/StatefulPartitionedCall/model/sequential_4/layer_normalization_3/zeros/packed_const_axis"], "attr": {"Tdim": {"type": "DT_INT32"}, "T": {"type": "DT_INT32"}}}, {"name": "StatefulPartitionedCall/model/sequential_4/layer_normalization_3/ones", "op": "Fill", "input": ["StatefulPartitionedCall/model/sequential_4/layer_normalization_3/ones/packed", "StatefulPartitionedCall/model/sequential_4/layer_normalization_3/ones/Const"], "attr": {"index_type": {"type": "DT_INT32"}, "T": {"type": "DT_FLOAT"}}}, {"name": "StatefulPartitionedCall/model/sequential_4/layer_normalization_3/zeros", "op": "Fill", "input": ["StatefulPartitionedCall/model/sequential_4/layer_normalization_3/zeros/packed", "StatefulPartitionedCall/model/sequential_4/layer_normalization_3/zeros/Const"], "attr": {"T": {"type": "DT_FLOAT"}, "index_type": {"type": "DT_INT32"}}}, {"name": "StatefulPartitionedCall/model/sequential_4/layer_normalization_3/FusedBatchNormV3", "op": "FusedBatchNormV3", "input": ["StatefulPartitionedCall/model/sequential_4/layer_normalization_3/Reshape", "StatefulPartitionedCall/model/sequential_4/layer_normalization_3/ones", "StatefulPartitionedCall/model/sequential_4/layer_normalization_3/zeros", "StatefulPartitionedCall/model/sequential_4/layer_normalization_3/Const", "StatefulPartitionedCall/model/sequential_4/layer_normalization_3/Const_1"], "attr": {"T": {"type": "DT_FLOAT"}, "exponential_avg_factor": {"f": 1.0}, "data_format": {"s": "TkNIVw=="}, "is_training": {"b": true}, "U": {"type": "DT_FLOAT"}, "epsilon": {"f": 0.001}}}, {"name": "StatefulPartitionedCall/model/sequential_4/layer_normalization_3/Reshape_1", "op": "Reshape", "input": ["StatefulPartitionedCall/model/sequential_4/layer_normalization_3/FusedBatchNormV3", "StatefulPartitionedCall/model/sequential_4/layer_normalization_3/Shape"], "attr": {"T": {"type": "DT_FLOAT"}, "Tshape": {"type": "DT_INT32"}}}, {"name": "StatefulPartitionedCall/model/sequential_4/layer_normalization_3/mul_4", "op": "Mul", "input": ["StatefulPartitionedCall/model/sequential_4/layer_normalization_3/Reshape_1", "StatefulPartitionedCall/model/sequential_4/layer_normalization_3/mul_4/ReadVariableOp"], "attr": {"T": {"type": "DT_FLOAT"}}}, {"name": "StatefulPartitionedCall/model/sequential_4/layer_normalization_3/add", "op": "AddV2", "input": ["StatefulPartitionedCall/model/sequential_4/layer_normalization_3/mul_4", "StatefulPartitionedCall/model/sequential_4/layer_normalization_3/add/ReadVariableOp"], "attr": {"T": {"type": "DT_FLOAT"}}}, {"name": "StatefulPartitionedCall/model/sequential_4/leaky_re_lu_4/LeakyRelu", "op": "LeakyRelu", "input": ["StatefulPartitionedCall/model/sequential_4/layer_normalization_3/add"], "attr": {"T": {"type": "DT_FLOAT"}, "alpha": {"f": 0.3}}}, {"name": "StatefulPartitionedCall/model/sequential_5/conv2d_5/Conv2D", "op": "Conv2D", "input": ["StatefulPartitionedCall/model/sequential_4/leaky_re_lu_4/LeakyRelu", "StatefulPartitionedCall/model/sequential_5/conv2d_5/Conv2D/ReadVariableOp"], "device": "/device:CPU:0", "attr": {"dilations": {"list": {"i": ["1", "1", "1", "1"]}}, "data_format": {"s": "TkhXQw=="}, "use_cudnn_on_gpu": {"b": true}, "explicit_paddings": {"list": {}}, "padding": {"s": "U0FNRQ=="}, "strides": {"list": {"i": ["1", "2", "2", "1"]}}, "T": {"type": "DT_FLOAT"}}}, {"name": "StatefulPartitionedCall/model/sequential_5/layer_normalization_4/Shape", "op": "Shape", "input": ["StatefulPartitionedCall/model/sequential_5/conv2d_5/Conv2D"], "attr": {"out_type": {"type": "DT_INT32"}, "T": {"type": "DT_FLOAT"}}}, {"name": "StatefulPartitionedCall/model/sequential_5/layer_normalization_4/strided_slice_3", "op": "StridedSlice", "input": ["StatefulPartitionedCall/model/sequential_5/layer_normalization_4/Shape", "StatefulPartitionedCall/model/sequential_5/layer_normalization_4/strided_slice_3/stack", "StatefulPartitionedCall/model/sequential_5/layer_normalization_4/strided_slice_3/stack_1", "StatefulPartitionedCall/model/sequential_5/layer_normalization_4/strided_slice_3/stack_2"], "attr": {"shrink_axis_mask": {"i": "1"}, "new_axis_mask": {"i": "0"}, "T": {"type": "DT_INT32"}, "ellipsis_mask": {"i": "0"}, "begin_mask": {"i": "0"}, "Index": {"type": "DT_INT32"}, "end_mask": {"i": "0"}}}, {"name": "StatefulPartitionedCall/model/sequential_5/layer_normalization_4/strided_slice", "op": "StridedSlice", "input": ["StatefulPartitionedCall/model/sequential_5/layer_normalization_4/Shape", "StatefulPartitionedCall/model/sequential_5/layer_normalization_4/strided_slice/stack", "StatefulPartitionedCall/model/sequential_5/layer_normalization_4/strided_slice/stack_1", "StatefulPartitionedCall/model/sequential_5/layer_normalization_4/strided_slice/stack_2"], "attr": {"ellipsis_mask": {"i": "0"}, "end_mask": {"i": "0"}, "new_axis_mask": {"i": "0"}, "T": {"type": "DT_INT32"}, "begin_mask": {"i": "0"}, "Index": {"type": "DT_INT32"}, "shrink_axis_mask": {"i": "1"}}}, {"name": "StatefulPartitionedCall/model/sequential_5/layer_normalization_4/strided_slice_1", "op": "StridedSlice", "input": ["StatefulPartitionedCall/model/sequential_5/layer_normalization_4/Shape", "StatefulPartitionedCall/model/sequential_5/layer_normalization_4/strided_slice_1/stack", "StatefulPartitionedCall/model/sequential_5/layer_normalization_4/strided_slice_1/stack_1", "StatefulPartitionedCall/model/sequential_5/layer_normalization_4/strided_slice_1/stack_2"], "attr": {"new_axis_mask": {"i": "0"}, "Index": {"type": "DT_INT32"}, "T": {"type": "DT_INT32"}, "shrink_axis_mask": {"i": "1"}, "ellipsis_mask": {"i": "0"}, "end_mask": {"i": "0"}, "begin_mask": {"i": "0"}}}, {"name": "StatefulPartitionedCall/model/sequential_5/layer_normalization_4/strided_slice_2", "op": "StridedSlice", "input": ["StatefulPartitionedCall/model/sequential_5/layer_normalization_4/Shape", "StatefulPartitionedCall/model/sequential_5/layer_normalization_4/strided_slice_2/stack", "StatefulPartitionedCall/model/sequential_5/layer_normalization_4/strided_slice_2/stack_1", "StatefulPartitionedCall/model/sequential_5/layer_normalization_4/strided_slice_2/stack_2"], "attr": {"Index": {"type": "DT_INT32"}, "begin_mask": {"i": "0"}, "T": {"type": "DT_INT32"}, "shrink_axis_mask": {"i": "1"}, "end_mask": {"i": "0"}, "ellipsis_mask": {"i": "0"}, "new_axis_mask": {"i": "0"}}}, {"name": "StatefulPartitionedCall/model/sequential_5/layer_normalization_4/mul_1", "op": "Mul", "input": ["StatefulPartitionedCall/model/sequential_5/layer_normalization_4/strided_slice", "StatefulPartitionedCall/model/sequential_5/layer_normalization_4/strided_slice_1"], "attr": {"T": {"type": "DT_INT32"}, "_grappler_ArithmeticOptimizer_MinimizeBroadcasts": {"b": true}}}, {"name": "StatefulPartitionedCall/model/sequential_5/layer_normalization_4/mul_2", "op": "Mul", "input": ["StatefulPartitionedCall/model/sequential_5/layer_normalization_4/mul_1", "StatefulPartitionedCall/model/sequential_5/layer_normalization_4/strided_slice_2"], "attr": {"_grappler_ArithmeticOptimizer_MinimizeBroadcasts": {"b": true}, "T": {"type": "DT_INT32"}}}, {"name": "StatefulPartitionedCall/model/sequential_5/layer_normalization_4/Reshape/shape", "op": "Pack", "input": ["StatefulPartitionedCall/model/sequential_5/layer_normalization_4/Reshape/shape/0", "StatefulPartitionedCall/model/sequential_5/layer_normalization_4/mul_2", "StatefulPartitionedCall/model/sequential_5/layer_normalization_4/strided_slice_3", "StatefulPartitionedCall/model/sequential_5/layer_normalization_4/Reshape/shape/3"], "attr": {"T": {"type": "DT_INT32"}, "axis": {"i": "0"}, "N": {"i": "4"}}}, {"name": "ConstantFolding/StatefulPartitionedCall/model/sequential_5/layer_normalization_4/ones/packed_const_axis", "op": "Const", "input": ["^StatefulPartitionedCall/model/sequential_5/layer_normalization_4/mul_2"], "attr": {"dtype": {"type": "DT_INT32"}, "value": {"tensor": {"dtype": "DT_INT32", "tensorShape": {}}}}}, {"name": "ConstantFolding/StatefulPartitionedCall/model/sequential_5/layer_normalization_4/zeros/packed_const_axis", "op": "Const", "input": ["^StatefulPartitionedCall/model/sequential_5/layer_normalization_4/mul_2"], "attr": {"dtype": {"type": "DT_INT32"}, "value": {"tensor": {"dtype": "DT_INT32", "tensorShape": {}}}}}, {"name": "StatefulPartitionedCall/model/sequential_5/layer_normalization_4/Reshape", "op": "Reshape", "input": ["StatefulPartitionedCall/model/sequential_5/conv2d_5/Conv2D", "StatefulPartitionedCall/model/sequential_5/layer_normalization_4/Reshape/shape"], "attr": {"Tshape": {"type": "DT_INT32"}, "T": {"type": "DT_FLOAT"}}}, {"name": "StatefulPartitionedCall/model/sequential_5/layer_normalization_4/ones/packed", "op": "ExpandDims", "input": ["StatefulPartitionedCall/model/sequential_5/layer_normalization_4/mul_2", "ConstantFolding/StatefulPartitionedCall/model/sequential_5/layer_normalization_4/ones/packed_const_axis"], "attr": {"Tdim": {"type": "DT_INT32"}, "T": {"type": "DT_INT32"}}}, {"name": "StatefulPartitionedCall/model/sequential_5/layer_normalization_4/zeros/packed", "op": "ExpandDims", "input": ["StatefulPartitionedCall/model/sequential_5/layer_normalization_4/mul_2", "ConstantFolding/StatefulPartitionedCall/model/sequential_5/layer_normalization_4/zeros/packed_const_axis"], "attr": {"T": {"type": "DT_INT32"}, "Tdim": {"type": "DT_INT32"}}}, {"name": "StatefulPartitionedCall/model/sequential_5/layer_normalization_4/ones", "op": "Fill", "input": ["StatefulPartitionedCall/model/sequential_5/layer_normalization_4/ones/packed", "StatefulPartitionedCall/model/sequential_5/layer_normalization_4/ones/Const"], "attr": {"T": {"type": "DT_FLOAT"}, "index_type": {"type": "DT_INT32"}}}, {"name": "StatefulPartitionedCall/model/sequential_5/layer_normalization_4/zeros", "op": "Fill", "input": ["StatefulPartitionedCall/model/sequential_5/layer_normalization_4/zeros/packed", "StatefulPartitionedCall/model/sequential_5/layer_normalization_4/zeros/Const"], "attr": {"index_type": {"type": "DT_INT32"}, "T": {"type": "DT_FLOAT"}}}, {"name": "StatefulPartitionedCall/model/sequential_5/layer_normalization_4/FusedBatchNormV3", "op": "FusedBatchNormV3", "input": ["StatefulPartitionedCall/model/sequential_5/layer_normalization_4/Reshape", "StatefulPartitionedCall/model/sequential_5/layer_normalization_4/ones", "StatefulPartitionedCall/model/sequential_5/layer_normalization_4/zeros", "StatefulPartitionedCall/model/sequential_5/layer_normalization_4/Const", "StatefulPartitionedCall/model/sequential_5/layer_normalization_4/Const_1"], "attr": {"U": {"type": "DT_FLOAT"}, "epsilon": {"f": 0.001}, "is_training": {"b": true}, "T": {"type": "DT_FLOAT"}, "data_format": {"s": "TkNIVw=="}, "exponential_avg_factor": {"f": 1.0}}}, {"name": "StatefulPartitionedCall/model/sequential_5/layer_normalization_4/Reshape_1", "op": "Reshape", "input": ["StatefulPartitionedCall/model/sequential_5/layer_normalization_4/FusedBatchNormV3", "StatefulPartitionedCall/model/sequential_5/layer_normalization_4/Shape"], "attr": {"T": {"type": "DT_FLOAT"}, "Tshape": {"type": "DT_INT32"}}}, {"name": "StatefulPartitionedCall/model/sequential_5/layer_normalization_4/mul_4", "op": "Mul", "input": ["StatefulPartitionedCall/model/sequential_5/layer_normalization_4/Reshape_1", "StatefulPartitionedCall/model/sequential_5/layer_normalization_4/mul_4/ReadVariableOp"], "attr": {"T": {"type": "DT_FLOAT"}}}, {"name": "StatefulPartitionedCall/model/sequential_5/layer_normalization_4/add", "op": "AddV2", "input": ["StatefulPartitionedCall/model/sequential_5/layer_normalization_4/mul_4", "StatefulPartitionedCall/model/sequential_5/layer_normalization_4/add/ReadVariableOp"], "attr": {"T": {"type": "DT_FLOAT"}}}, {"name": "StatefulPartitionedCall/model/sequential_5/leaky_re_lu_5/LeakyRelu", "op": "LeakyRelu", "input": ["StatefulPartitionedCall/model/sequential_5/layer_normalization_4/add"], "attr": {"T": {"type": "DT_FLOAT"}, "alpha": {"f": 0.3}}}, {"name": "StatefulPartitionedCall/model/sequential_6/conv2d_6/Conv2D", "op": "Conv2D", "input": ["StatefulPartitionedCall/model/sequential_5/leaky_re_lu_5/LeakyRelu", "StatefulPartitionedCall/model/sequential_6/conv2d_6/Conv2D/ReadVariableOp"], "device": "/device:CPU:0", "attr": {"dilations": {"list": {"i": ["1", "1", "1", "1"]}}, "data_format": {"s": "TkhXQw=="}, "use_cudnn_on_gpu": {"b": true}, "strides": {"list": {"i": ["1", "2", "2", "1"]}}, "explicit_paddings": {"list": {}}, "padding": {"s": "U0FNRQ=="}, "T": {"type": "DT_FLOAT"}}}, {"name": "StatefulPartitionedCall/model/sequential_6/layer_normalization_5/Shape", "op": "Shape", "input": ["StatefulPartitionedCall/model/sequential_6/conv2d_6/Conv2D"], "attr": {"T": {"type": "DT_FLOAT"}, "out_type": {"type": "DT_INT32"}}}, {"name": "StatefulPartitionedCall/model/sequential_6/layer_normalization_5/strided_slice_3", "op": "StridedSlice", "input": ["StatefulPartitionedCall/model/sequential_6/layer_normalization_5/Shape", "StatefulPartitionedCall/model/sequential_6/layer_normalization_5/strided_slice_3/stack", "StatefulPartitionedCall/model/sequential_6/layer_normalization_5/strided_slice_3/stack_1", "StatefulPartitionedCall/model/sequential_6/layer_normalization_5/strided_slice_3/stack_2"], "attr": {"ellipsis_mask": {"i": "0"}, "Index": {"type": "DT_INT32"}, "begin_mask": {"i": "0"}, "end_mask": {"i": "0"}, "T": {"type": "DT_INT32"}, "shrink_axis_mask": {"i": "1"}, "new_axis_mask": {"i": "0"}}}, {"name": "StatefulPartitionedCall/model/sequential_6/layer_normalization_5/strided_slice", "op": "StridedSlice", "input": ["StatefulPartitionedCall/model/sequential_6/layer_normalization_5/Shape", "StatefulPartitionedCall/model/sequential_6/layer_normalization_5/strided_slice/stack", "StatefulPartitionedCall/model/sequential_6/layer_normalization_5/strided_slice/stack_1", "StatefulPartitionedCall/model/sequential_6/layer_normalization_5/strided_slice/stack_2"], "attr": {"end_mask": {"i": "0"}, "shrink_axis_mask": {"i": "1"}, "T": {"type": "DT_INT32"}, "new_axis_mask": {"i": "0"}, "begin_mask": {"i": "0"}, "Index": {"type": "DT_INT32"}, "ellipsis_mask": {"i": "0"}}}, {"name": "StatefulPartitionedCall/model/sequential_6/layer_normalization_5/strided_slice_1", "op": "StridedSlice", "input": ["StatefulPartitionedCall/model/sequential_6/layer_normalization_5/Shape", "StatefulPartitionedCall/model/sequential_6/layer_normalization_5/strided_slice_1/stack", "StatefulPartitionedCall/model/sequential_6/layer_normalization_5/strided_slice_1/stack_1", "StatefulPartitionedCall/model/sequential_6/layer_normalization_5/strided_slice_1/stack_2"], "attr": {"Index": {"type": "DT_INT32"}, "shrink_axis_mask": {"i": "1"}, "end_mask": {"i": "0"}, "T": {"type": "DT_INT32"}, "begin_mask": {"i": "0"}, "new_axis_mask": {"i": "0"}, "ellipsis_mask": {"i": "0"}}}, {"name": "StatefulPartitionedCall/model/sequential_6/layer_normalization_5/strided_slice_2", "op": "StridedSlice", "input": ["StatefulPartitionedCall/model/sequential_6/layer_normalization_5/Shape", "StatefulPartitionedCall/model/sequential_6/layer_normalization_5/strided_slice_2/stack", "StatefulPartitionedCall/model/sequential_6/layer_normalization_5/strided_slice_2/stack_1", "StatefulPartitionedCall/model/sequential_6/layer_normalization_5/strided_slice_2/stack_2"], "attr": {"end_mask": {"i": "0"}, "T": {"type": "DT_INT32"}, "shrink_axis_mask": {"i": "1"}, "Index": {"type": "DT_INT32"}, "begin_mask": {"i": "0"}, "new_axis_mask": {"i": "0"}, "ellipsis_mask": {"i": "0"}}}, {"name": "StatefulPartitionedCall/model/sequential_6/layer_normalization_5/mul_1", "op": "Mul", "input": ["StatefulPartitionedCall/model/sequential_6/layer_normalization_5/strided_slice", "StatefulPartitionedCall/model/sequential_6/layer_normalization_5/strided_slice_1"], "attr": {"_grappler_ArithmeticOptimizer_MinimizeBroadcasts": {"b": true}, "T": {"type": "DT_INT32"}}}, {"name": "StatefulPartitionedCall/model/sequential_6/layer_normalization_5/mul_2", "op": "Mul", "input": ["StatefulPartitionedCall/model/sequential_6/layer_normalization_5/mul_1", "StatefulPartitionedCall/model/sequential_6/layer_normalization_5/strided_slice_2"], "attr": {"T": {"type": "DT_INT32"}, "_grappler_ArithmeticOptimizer_MinimizeBroadcasts": {"b": true}}}, {"name": "StatefulPartitionedCall/model/sequential_6/layer_normalization_5/Reshape/shape", "op": "Pack", "input": ["StatefulPartitionedCall/model/sequential_6/layer_normalization_5/Reshape/shape/0", "StatefulPartitionedCall/model/sequential_6/layer_normalization_5/mul_2", "StatefulPartitionedCall/model/sequential_6/layer_normalization_5/strided_slice_3", "StatefulPartitionedCall/model/sequential_6/layer_normalization_5/Reshape/shape/3"], "attr": {"axis": {"i": "0"}, "N": {"i": "4"}, "T": {"type": "DT_INT32"}}}, {"name": "ConstantFolding/StatefulPartitionedCall/model/sequential_6/layer_normalization_5/ones/packed_const_axis", "op": "Const", "input": ["^StatefulPartitionedCall/model/sequential_6/layer_normalization_5/mul_2"], "attr": {"value": {"tensor": {"dtype": "DT_INT32", "tensorShape": {}}}, "dtype": {"type": "DT_INT32"}}}, {"name": "ConstantFolding/StatefulPartitionedCall/model/sequential_6/layer_normalization_5/zeros/packed_const_axis", "op": "Const", "input": ["^StatefulPartitionedCall/model/sequential_6/layer_normalization_5/mul_2"], "attr": {"dtype": {"type": "DT_INT32"}, "value": {"tensor": {"dtype": "DT_INT32", "tensorShape": {}}}}}, {"name": "StatefulPartitionedCall/model/sequential_6/layer_normalization_5/Reshape", "op": "Reshape", "input": ["StatefulPartitionedCall/model/sequential_6/conv2d_6/Conv2D", "StatefulPartitionedCall/model/sequential_6/layer_normalization_5/Reshape/shape"], "attr": {"T": {"type": "DT_FLOAT"}, "Tshape": {"type": "DT_INT32"}}}, {"name": "StatefulPartitionedCall/model/sequential_6/layer_normalization_5/ones/packed", "op": "ExpandDims", "input": ["StatefulPartitionedCall/model/sequential_6/layer_normalization_5/mul_2", "ConstantFolding/StatefulPartitionedCall/model/sequential_6/layer_normalization_5/ones/packed_const_axis"], "attr": {"Tdim": {"type": "DT_INT32"}, "T": {"type": "DT_INT32"}}}, {"name": "StatefulPartitionedCall/model/sequential_6/layer_normalization_5/zeros/packed", "op": "ExpandDims", "input": ["StatefulPartitionedCall/model/sequential_6/layer_normalization_5/mul_2", "ConstantFolding/StatefulPartitionedCall/model/sequential_6/layer_normalization_5/zeros/packed_const_axis"], "attr": {"T": {"type": "DT_INT32"}, "Tdim": {"type": "DT_INT32"}}}, {"name": "StatefulPartitionedCall/model/sequential_6/layer_normalization_5/ones", "op": "Fill", "input": ["StatefulPartitionedCall/model/sequential_6/layer_normalization_5/ones/packed", "StatefulPartitionedCall/model/sequential_6/layer_normalization_5/ones/Const"], "attr": {"T": {"type": "DT_FLOAT"}, "index_type": {"type": "DT_INT32"}}}, {"name": "StatefulPartitionedCall/model/sequential_6/layer_normalization_5/zeros", "op": "Fill", "input": ["StatefulPartitionedCall/model/sequential_6/layer_normalization_5/zeros/packed", "StatefulPartitionedCall/model/sequential_6/layer_normalization_5/zeros/Const"], "attr": {"T": {"type": "DT_FLOAT"}, "index_type": {"type": "DT_INT32"}}}, {"name": "StatefulPartitionedCall/model/sequential_6/layer_normalization_5/FusedBatchNormV3", "op": "FusedBatchNormV3", "input": ["StatefulPartitionedCall/model/sequential_6/layer_normalization_5/Reshape", "StatefulPartitionedCall/model/sequential_6/layer_normalization_5/ones", "StatefulPartitionedCall/model/sequential_6/layer_normalization_5/zeros", "StatefulPartitionedCall/model/sequential_6/layer_normalization_5/Const", "StatefulPartitionedCall/model/sequential_6/layer_normalization_5/Const_1"], "attr": {"T": {"type": "DT_FLOAT"}, "data_format": {"s": "TkNIVw=="}, "exponential_avg_factor": {"f": 1.0}, "U": {"type": "DT_FLOAT"}, "epsilon": {"f": 0.001}, "is_training": {"b": true}}}, {"name": "StatefulPartitionedCall/model/sequential_6/layer_normalization_5/Reshape_1", "op": "Reshape", "input": ["StatefulPartitionedCall/model/sequential_6/layer_normalization_5/FusedBatchNormV3", "StatefulPartitionedCall/model/sequential_6/layer_normalization_5/Shape"], "attr": {"Tshape": {"type": "DT_INT32"}, "T": {"type": "DT_FLOAT"}}}, {"name": "StatefulPartitionedCall/model/sequential_6/layer_normalization_5/mul_4", "op": "Mul", "input": ["StatefulPartitionedCall/model/sequential_6/layer_normalization_5/Reshape_1", "StatefulPartitionedCall/model/sequential_6/layer_normalization_5/mul_4/ReadVariableOp"], "attr": {"T": {"type": "DT_FLOAT"}}}, {"name": "StatefulPartitionedCall/model/sequential_6/layer_normalization_5/add", "op": "AddV2", "input": ["StatefulPartitionedCall/model/sequential_6/layer_normalization_5/mul_4", "StatefulPartitionedCall/model/sequential_6/layer_normalization_5/add/ReadVariableOp"], "attr": {"T": {"type": "DT_FLOAT"}}}, {"name": "StatefulPartitionedCall/model/sequential_6/leaky_re_lu_6/LeakyRelu", "op": "LeakyRelu", "input": ["StatefulPartitionedCall/model/sequential_6/layer_normalization_5/add"], "attr": {"alpha": {"f": 0.3}, "T": {"type": "DT_FLOAT"}}}, {"name": "StatefulPartitionedCall/model/sequential_7/conv2d_7/Conv2D", "op": "Conv2D", "input": ["StatefulPartitionedCall/model/sequential_6/leaky_re_lu_6/LeakyRelu", "StatefulPartitionedCall/model/sequential_7/conv2d_7/Conv2D/ReadVariableOp"], "device": "/device:CPU:0", "attr": {"T": {"type": "DT_FLOAT"}, "strides": {"list": {"i": ["1", "2", "2", "1"]}}, "dilations": {"list": {"i": ["1", "1", "1", "1"]}}, "data_format": {"s": "TkhXQw=="}, "use_cudnn_on_gpu": {"b": true}, "explicit_paddings": {"list": {}}, "padding": {"s": "U0FNRQ=="}}}, {"name": "StatefulPartitionedCall/model/sequential_7/layer_normalization_6/Shape", "op": "Shape", "input": ["StatefulPartitionedCall/model/sequential_7/conv2d_7/Conv2D"], "attr": {"out_type": {"type": "DT_INT32"}, "T": {"type": "DT_FLOAT"}}}, {"name": "StatefulPartitionedCall/model/sequential_7/layer_normalization_6/strided_slice_3", "op": "StridedSlice", "input": ["StatefulPartitionedCall/model/sequential_7/layer_normalization_6/Shape", "StatefulPartitionedCall/model/sequential_7/layer_normalization_6/strided_slice_3/stack", "StatefulPartitionedCall/model/sequential_7/layer_normalization_6/strided_slice_3/stack_1", "StatefulPartitionedCall/model/sequential_7/layer_normalization_6/strided_slice_3/stack_2"], "attr": {"T": {"type": "DT_INT32"}, "begin_mask": {"i": "0"}, "shrink_axis_mask": {"i": "1"}, "new_axis_mask": {"i": "0"}, "end_mask": {"i": "0"}, "ellipsis_mask": {"i": "0"}, "Index": {"type": "DT_INT32"}}}, {"name": "StatefulPartitionedCall/model/sequential_7/layer_normalization_6/strided_slice", "op": "StridedSlice", "input": ["StatefulPartitionedCall/model/sequential_7/layer_normalization_6/Shape", "StatefulPartitionedCall/model/sequential_7/layer_normalization_6/strided_slice/stack", "StatefulPartitionedCall/model/sequential_7/layer_normalization_6/strided_slice/stack_1", "StatefulPartitionedCall/model/sequential_7/layer_normalization_6/strided_slice/stack_2"], "attr": {"new_axis_mask": {"i": "0"}, "ellipsis_mask": {"i": "0"}, "Index": {"type": "DT_INT32"}, "begin_mask": {"i": "0"}, "end_mask": {"i": "0"}, "shrink_axis_mask": {"i": "1"}, "T": {"type": "DT_INT32"}}}, {"name": "StatefulPartitionedCall/model/sequential_7/layer_normalization_6/strided_slice_1", "op": "StridedSlice", "input": ["StatefulPartitionedCall/model/sequential_7/layer_normalization_6/Shape", "StatefulPartitionedCall/model/sequential_7/layer_normalization_6/strided_slice_1/stack", "StatefulPartitionedCall/model/sequential_7/layer_normalization_6/strided_slice_1/stack_1", "StatefulPartitionedCall/model/sequential_7/layer_normalization_6/strided_slice_1/stack_2"], "attr": {"begin_mask": {"i": "0"}, "new_axis_mask": {"i": "0"}, "T": {"type": "DT_INT32"}, "ellipsis_mask": {"i": "0"}, "end_mask": {"i": "0"}, "shrink_axis_mask": {"i": "1"}, "Index": {"type": "DT_INT32"}}}, {"name": "StatefulPartitionedCall/model/sequential_7/layer_normalization_6/strided_slice_2", "op": "StridedSlice", "input": ["StatefulPartitionedCall/model/sequential_7/layer_normalization_6/Shape", "StatefulPartitionedCall/model/sequential_7/layer_normalization_6/strided_slice_2/stack", "StatefulPartitionedCall/model/sequential_7/layer_normalization_6/strided_slice_2/stack_1", "StatefulPartitionedCall/model/sequential_7/layer_normalization_6/strided_slice_2/stack_2"], "attr": {"T": {"type": "DT_INT32"}, "Index": {"type": "DT_INT32"}, "begin_mask": {"i": "0"}, "end_mask": {"i": "0"}, "shrink_axis_mask": {"i": "1"}, "ellipsis_mask": {"i": "0"}, "new_axis_mask": {"i": "0"}}}, {"name": "StatefulPartitionedCall/model/sequential_7/layer_normalization_6/mul_1", "op": "Mul", "input": ["StatefulPartitionedCall/model/sequential_7/layer_normalization_6/strided_slice", "StatefulPartitionedCall/model/sequential_7/layer_normalization_6/strided_slice_1"], "attr": {"T": {"type": "DT_INT32"}, "_grappler_ArithmeticOptimizer_MinimizeBroadcasts": {"b": true}}}, {"name": "StatefulPartitionedCall/model/sequential_7/layer_normalization_6/mul_2", "op": "Mul", "input": ["StatefulPartitionedCall/model/sequential_7/layer_normalization_6/mul_1", "StatefulPartitionedCall/model/sequential_7/layer_normalization_6/strided_slice_2"], "attr": {"_grappler_ArithmeticOptimizer_MinimizeBroadcasts": {"b": true}, "T": {"type": "DT_INT32"}}}, {"name": "StatefulPartitionedCall/model/sequential_7/layer_normalization_6/Reshape/shape", "op": "Pack", "input": ["StatefulPartitionedCall/model/sequential_7/layer_normalization_6/Reshape/shape/0", "StatefulPartitionedCall/model/sequential_7/layer_normalization_6/mul_2", "StatefulPartitionedCall/model/sequential_7/layer_normalization_6/strided_slice_3", "StatefulPartitionedCall/model/sequential_7/layer_normalization_6/Reshape/shape/3"], "attr": {"axis": {"i": "0"}, "T": {"type": "DT_INT32"}, "N": {"i": "4"}}}, {"name": "ConstantFolding/StatefulPartitionedCall/model/sequential_7/layer_normalization_6/ones/packed_const_axis", "op": "Const", "input": ["^StatefulPartitionedCall/model/sequential_7/layer_normalization_6/mul_2"], "attr": {"value": {"tensor": {"dtype": "DT_INT32", "tensorShape": {}}}, "dtype": {"type": "DT_INT32"}}}, {"name": "ConstantFolding/StatefulPartitionedCall/model/sequential_7/layer_normalization_6/zeros/packed_const_axis", "op": "Const", "input": ["^StatefulPartitionedCall/model/sequential_7/layer_normalization_6/mul_2"], "attr": {"value": {"tensor": {"dtype": "DT_INT32", "tensorShape": {}}}, "dtype": {"type": "DT_INT32"}}}, {"name": "StatefulPartitionedCall/model/sequential_7/layer_normalization_6/Reshape", "op": "Reshape", "input": ["StatefulPartitionedCall/model/sequential_7/conv2d_7/Conv2D", "StatefulPartitionedCall/model/sequential_7/layer_normalization_6/Reshape/shape"], "attr": {"T": {"type": "DT_FLOAT"}, "Tshape": {"type": "DT_INT32"}}}, {"name": "StatefulPartitionedCall/model/sequential_7/layer_normalization_6/ones/packed", "op": "ExpandDims", "input": ["StatefulPartitionedCall/model/sequential_7/layer_normalization_6/mul_2", "ConstantFolding/StatefulPartitionedCall/model/sequential_7/layer_normalization_6/ones/packed_const_axis"], "attr": {"T": {"type": "DT_INT32"}, "Tdim": {"type": "DT_INT32"}}}, {"name": "StatefulPartitionedCall/model/sequential_7/layer_normalization_6/zeros/packed", "op": "ExpandDims", "input": ["StatefulPartitionedCall/model/sequential_7/layer_normalization_6/mul_2", "ConstantFolding/StatefulPartitionedCall/model/sequential_7/layer_normalization_6/zeros/packed_const_axis"], "attr": {"T": {"type": "DT_INT32"}, "Tdim": {"type": "DT_INT32"}}}, {"name": "StatefulPartitionedCall/model/sequential_7/layer_normalization_6/ones", "op": "Fill", "input": ["StatefulPartitionedCall/model/sequential_7/layer_normalization_6/ones/packed", "StatefulPartitionedCall/model/sequential_7/layer_normalization_6/ones/Const"], "attr": {"T": {"type": "DT_FLOAT"}, "index_type": {"type": "DT_INT32"}}}, {"name": "StatefulPartitionedCall/model/sequential_7/layer_normalization_6/zeros", "op": "Fill", "input": ["StatefulPartitionedCall/model/sequential_7/layer_normalization_6/zeros/packed", "StatefulPartitionedCall/model/sequential_7/layer_normalization_6/zeros/Const"], "attr": {"T": {"type": "DT_FLOAT"}, "index_type": {"type": "DT_INT32"}}}, {"name": "StatefulPartitionedCall/model/sequential_7/layer_normalization_6/FusedBatchNormV3", "op": "FusedBatchNormV3", "input": ["StatefulPartitionedCall/model/sequential_7/layer_normalization_6/Reshape", "StatefulPartitionedCall/model/sequential_7/layer_normalization_6/ones", "StatefulPartitionedCall/model/sequential_7/layer_normalization_6/zeros", "StatefulPartitionedCall/model/sequential_7/layer_normalization_6/Const", "StatefulPartitionedCall/model/sequential_7/layer_normalization_6/Const_1"], "attr": {"U": {"type": "DT_FLOAT"}, "epsilon": {"f": 0.001}, "data_format": {"s": "TkNIVw=="}, "exponential_avg_factor": {"f": 1.0}, "T": {"type": "DT_FLOAT"}, "is_training": {"b": true}}}, {"name": "StatefulPartitionedCall/model/sequential_7/layer_normalization_6/Reshape_1", "op": "Reshape", "input": ["StatefulPartitionedCall/model/sequential_7/layer_normalization_6/FusedBatchNormV3", "StatefulPartitionedCall/model/sequential_7/layer_normalization_6/Shape"], "attr": {"Tshape": {"type": "DT_INT32"}, "T": {"type": "DT_FLOAT"}}}, {"name": "StatefulPartitionedCall/model/sequential_7/layer_normalization_6/mul_4", "op": "Mul", "input": ["StatefulPartitionedCall/model/sequential_7/layer_normalization_6/Reshape_1", "StatefulPartitionedCall/model/sequential_7/layer_normalization_6/mul_4/ReadVariableOp"], "attr": {"T": {"type": "DT_FLOAT"}}}, {"name": "StatefulPartitionedCall/model/sequential_7/layer_normalization_6/add", "op": "AddV2", "input": ["StatefulPartitionedCall/model/sequential_7/layer_normalization_6/mul_4", "StatefulPartitionedCall/model/sequential_7/layer_normalization_6/add/ReadVariableOp"], "attr": {"T": {"type": "DT_FLOAT"}}}, {"name": "StatefulPartitionedCall/model/sequential_7/leaky_re_lu_7/LeakyRelu", "op": "LeakyRelu", "input": ["StatefulPartitionedCall/model/sequential_7/layer_normalization_6/add"], "attr": {"alpha": {"f": 0.3}, "T": {"type": "DT_FLOAT"}}}, {"name": "StatefulPartitionedCall/model/sequential_8/conv2d_transpose/Shape", "op": "Shape", "input": ["StatefulPartitionedCall/model/sequential_7/leaky_re_lu_7/LeakyRelu"], "attr": {"T": {"type": "DT_FLOAT"}, "out_type": {"type": "DT_INT32"}}}, {"name": "StatefulPartitionedCall/model/sequential_8/conv2d_transpose/strided_slice", "op": "StridedSlice", "input": ["StatefulPartitionedCall/model/sequential_8/conv2d_transpose/Shape", "StatefulPartitionedCall/model/sequential_8/conv2d_transpose/strided_slice/stack", "StatefulPartitionedCall/model/sequential_8/conv2d_transpose/strided_slice/stack_1", "StatefulPartitionedCall/model/sequential_8/conv2d_transpose/strided_slice/stack_2"], "attr": {"Index": {"type": "DT_INT32"}, "new_axis_mask": {"i": "0"}, "end_mask": {"i": "0"}, "shrink_axis_mask": {"i": "1"}, "begin_mask": {"i": "0"}, "ellipsis_mask": {"i": "0"}, "T": {"type": "DT_INT32"}}}, {"name": "StatefulPartitionedCall/model/sequential_8/conv2d_transpose/stack", "op": "Pack", "input": ["StatefulPartitionedCall/model/sequential_8/conv2d_transpose/strided_slice", "StatefulPartitionedCall/model/sequential_8/conv2d_transpose/stack/1", "StatefulPartitionedCall/model/sequential_8/conv2d_transpose/stack/2", "StatefulPartitionedCall/model/sequential_8/conv2d_transpose/stack/3"], "attr": {"axis": {"i": "0"}, "T": {"type": "DT_INT32"}, "N": {"i": "4"}}}, {"name": "StatefulPartitionedCall/model/sequential_8/conv2d_transpose/conv2d_transpose", "op": "Conv2DBackpropInput", "input": ["StatefulPartitionedCall/model/sequential_8/conv2d_transpose/stack", "StatefulPartitionedCall/model/sequential_8/conv2d_transpose/conv2d_transpose/ReadVariableOp", "StatefulPartitionedCall/model/sequential_7/leaky_re_lu_7/LeakyRelu"], "attr": {"padding": {"s": "U0FNRQ=="}, "dilations": {"list": {"i": ["1", "1", "1", "1"]}}, "data_format": {"s": "TkhXQw=="}, "use_cudnn_on_gpu": {"b": true}, "T": {"type": "DT_FLOAT"}, "strides": {"list": {"i": ["1", "2", "2", "1"]}}, "explicit_paddings": {"list": {}}}}, {"name": "StatefulPartitionedCall/model/sequential_8/layer_normalization_7/Shape", "op": "Shape", "input": ["StatefulPartitionedCall/model/sequential_8/conv2d_transpose/conv2d_transpose"], "attr": {"T": {"type": "DT_FLOAT"}, "out_type": {"type": "DT_INT32"}}}, {"name": "StatefulPartitionedCall/model/sequential_8/layer_normalization_7/strided_slice_3", "op": "StridedSlice", "input": ["StatefulPartitionedCall/model/sequential_8/layer_normalization_7/Shape", "StatefulPartitionedCall/model/sequential_8/layer_normalization_7/strided_slice_3/stack", "StatefulPartitionedCall/model/sequential_8/layer_normalization_7/strided_slice_3/stack_1", "StatefulPartitionedCall/model/sequential_8/layer_normalization_7/strided_slice_3/stack_2"], "attr": {"Index": {"type": "DT_INT32"}, "begin_mask": {"i": "0"}, "T": {"type": "DT_INT32"}, "shrink_axis_mask": {"i": "1"}, "new_axis_mask": {"i": "0"}, "end_mask": {"i": "0"}, "ellipsis_mask": {"i": "0"}}}, {"name": "StatefulPartitionedCall/model/sequential_8/layer_normalization_7/strided_slice", "op": "StridedSlice", "input": ["StatefulPartitionedCall/model/sequential_8/layer_normalization_7/Shape", "StatefulPartitionedCall/model/sequential_8/layer_normalization_7/strided_slice/stack", "StatefulPartitionedCall/model/sequential_8/layer_normalization_7/strided_slice/stack_1", "StatefulPartitionedCall/model/sequential_8/layer_normalization_7/strided_slice/stack_2"], "attr": {"Inde…
ulPartitionedCall/model/conv2d_transpose_7/Tanh"], "attr": {"T": {"type": "DT_FLOAT"}}}], "library": {}, "versions": {"producer": 898}}, "weightsManifest": [{"paths": ["group1-shard1of13.bin", "group1-shard2of13.bin", "group1-shard3of13.bin", "group1-shard4of13.bin", "group1-shard5of13.bin", "group1-shard6of13.bin", "group1-shard7of13.bin", "group1-shard8of13.bin", "group1-shard9of13.bin", "group1-shard10of13.bin", "group1-shard11of13.bin", "group1-shard12of13.bin", "group1-shard13of13.bin"], "weights": [{"name": "StatefulPartitionedCall/model/conv2d_transpose_7/strided_slice/stack", "shape": [1], "dtype": "int32"}, {"name": "StatefulPartitionedCall/model/conv2d_transpose_7/strided_slice/stack_1", "shape": [1], "dtype": "int32"}, {"name": "StatefulPartitionedCall/model/conv2d_transpose_7/strided_slice/stack_2", "shape": [1], "dtype": "int32"}, {"name": "StatefulPartitionedCall/model/conv2d_transpose_7/stack/1", "shape": [], "dtype": "int32"}, {"name": "StatefulPartitionedCall/model/conv2d_transpose_7/stack/2", "shape": [], "dtype": "int32"}, {"name": "StatefulPartitionedCall/model/conv2d_transpose_7/stack/3", "shape": [], "dtype": "int32"}, {"name": "StatefulPartitionedCall/model/conv2d_transpose_7/conv2d_transpose/ReadVariableOp", "shape": [4, 4, 3, 64], "dtype": "float32"}, {"name": "StatefulPartitionedCall/model/sequential_14/layer_normalization_13/Reshape/shape/0", "shape": [], "dtype": "int32"}, {"name": "StatefulPartitionedCall/model/sequential_14/layer_normalization_13/strided_slice_3/stack", "shape": [1], "dtype": "int32"}, {"name": "StatefulPartitionedCall/model/sequential_14/layer_normalization_13/strided_slice_3/stack_1", "shape": [1], "dtype": "int32"}, {"name": "StatefulPartitionedCall/model/sequential_14/layer_normalization_13/strided_slice_3/stack_2", "shape": [1], "dtype": "int32"}, {"name": "StatefulPartitionedCall/model/sequential_14/layer_normalization_13/Reshape/shape/3", "shape": [], "dtype": "int32"}, {"name": "StatefulPartitionedCall/model/sequential_14/layer_normalization_13/ones/Const", "shape": [], "dtype": "float32"}, {"name": "StatefulPartitionedCall/model/sequential_14/layer_normalization_13/strided_slice/stack", "shape": [1], "dtype": "int32"}, {"name": "StatefulPartitionedCall/model/sequential_14/layer_normalization_13/strided_slice/stack_1", "shape": [1], "dtype": "int32"}, {"name": "StatefulPartitionedCall/model/sequential_14/layer_normalization_13/strided_slice/stack_2", "shape": [1], "dtype": "int32"}, {"name": "StatefulPartitionedCall/model/sequential_14/layer_normalization_13/strided_slice_1/stack", "shape": [1], "dtype": "int32"}, {"name": "StatefulPartitionedCall/model/sequential_14/layer_normalization_13/strided_slice_1/stack_1", "shape": [1], "dtype": "int32"}, {"name": "StatefulPartitionedCall/model/sequential_14/layer_normalization_13/strided_slice_1/stack_2", "shape": [1], "dtype": "int32"}, {"name": "StatefulPartitionedCall/model/sequential_14/layer_normalization_13/strided_slice_2/stack", "shape": [1], "dtype": "int32"}, {"name": "StatefulPartitionedCall/model/sequential_14/layer_normalization_13/strided_slice_2/stack_1", "shape": [1], "dtype": "int32"}, {"name": "StatefulPartitionedCall/model/sequential_14/layer_normalization_13/strided_slice_2/stack_2", "shape": [1], "dtype": "int32"}, {"name": "StatefulPartitionedCall/model/sequential_14/layer_normalization_13/zeros/Const", "shape": [], "dtype": "float32"}, {"name": "StatefulPartitionedCall/model/sequential_14/layer_normalization_13/Const", "shape": [0], "dtype": "float32"}, {"name": "StatefulPartitionedCall/model/sequential_14/layer_normalization_13/Const_1", "shape": [0], "dtype": "float32"}, {"name": "StatefulPartitionedCall/model/sequential_14/conv2d_transpose_6/strided_slice/stack", "shape": [1], "dtype": "int32"}, {"name": "StatefulPartitionedCall/model/sequential_14/conv2d_transpose_6/strided_slice/stack_1", "shape": [1], "dtype": "int32"}, {"name": "StatefulPartitionedCall/model/sequential_14/conv2d_transpose_6/strided_slice/stack_2", "shape": [1], "dtype": "int32"}, {"name": "StatefulPartitionedCall/model/sequential_14/conv2d_transpose_6/stack/1", "shape": [], "dtype": "int32"}, {"name": "StatefulPartitionedCall/model/sequential_14/conv2d_transpose_6/stack/2", "shape": [], "dtype": "int32"}, {"name": "StatefulPartitionedCall/model/sequential_14/conv2d_transpose_6/stack/3", "shape": [], "dtype": "int32"}, {"name": "StatefulPartitionedCall/model/sequential_14/conv2d_transpose_6/conv2d_transpose/ReadVariableOp", "shape": [4, 4, 32, 128], "dtype": "float32"}, {"name": "StatefulPartitionedCall/model/sequential_13/layer_normalization_12/Reshape/shape/0", "shape": [], "dtype": "int32"}, {"name": "StatefulPartitionedCall/model/sequential_13/layer_normalization_12/strided_slice_3/stack", "shape": [1], "dtype": "int32"}, {"name": "StatefulPartitionedCall/model/sequential_13/layer_normalization_12/strided_slice_3/stack_1", "shape": [1], "dtype": "int32"}, {"name": "StatefulPartitionedCall/model/sequential_13/layer_normalization_12/strided_slice_3/stack_2", "shape": [1], "dtype": "int32"}, {"name": "StatefulPartitionedCall/model/sequential_13/layer_normalization_12/Reshape/shape/3", "shape": [], "dtype": "int32"}, {"name": "StatefulPartitionedCall/model/sequential_13/layer_normalization_12/ones/Const", "shape": [], "dtype": "float32"}, {"name": "StatefulPartitionedCall/model/sequential_13/layer_normalization_12/strided_slice/stack", "shape": [1], "dtype": "int32"}, {"name": "StatefulPartitionedCall/model/sequential_13/layer_normalization_12/strided_slice/stack_1", "shape": [1], "dtype": "int32"}, {"name": "StatefulPartitionedCall/model/sequential_13/layer_normalization_12/strided_slice/stack_2", "shape": [1], "dtype": "int32"}, {"name": "StatefulPartitionedCall/model/sequential_13/layer_normalization_12/strided_slice_1/stack", "shape": [1], "dtype": "int32"}, {"name": "StatefulPartitionedCall/model/sequential_13/layer_normalization_12/strided_slice_1/stack_1", "shape": [1], "dtype": "int32"}, {"name": "StatefulPartitionedCall/model/sequential_13/layer_normalization_12/strided_slice_1/stack_2", "shape": [1], "dtype": "int32"}, {"name": "StatefulPartitionedCall/model/sequential_13/layer_normalization_12/strided_slice_2/stack", "shape": [1], "dtype": "int32"}, {"name": "StatefulPartitionedCall/model/sequential_13/layer_normalization_12/strided_slice_2/stack_1", "shape": [1], "dtype": "int32"}, {"name": "StatefulPartitionedCall/model/sequential_13/layer_normalization_12/strided_slice_2/stack_2", "shape": [1], "dtype": "int32"}, {"name": "StatefulPartitionedCall/model/sequential_13/layer_normalization_12/zeros/Const", "shape": [], "dtype": "float32"}, {"name": "StatefulPartitionedCall/model/sequential_13/layer_normalization_12/Const", "shape": [0], "dtype": "float32"}, {"name": "StatefulPartitionedCall/model/sequential_13/layer_normalization_12/Const_1", "shape": [0], "dtype": "float32"}, {"name": "StatefulPartitionedCall/model/sequential_13/conv2d_transpose_5/strided_slice/stack", "shape": [1], "dtype": "int32"}, {"name": "StatefulPartitionedCall/model/sequential_13/conv2d_transpose_5/strided_slice/stack_1", "shape": [1], "dtype": "int32"}, {"name": "StatefulPartitionedCall/model/sequential_13/conv2d_transpose_5/strided_slice/stack_2", "shape": [1], "dtype": "int32"}, {"name": "StatefulPartitionedCall/model/sequential_13/conv2d_transpose_5/stack/1", "shape": [], "dtype": "int32"}, {"name": "StatefulPartitionedCall/model/sequential_13/conv2d_transpose_5/stack/2", "shape": [], "dtype": "int32"}, {"name": "StatefulPartitionedCall/model/sequential_13/conv2d_transpose_5/stack/3", "shape": [], "dtype": "int32"}, {"name": "StatefulPartitionedCall/model/sequential_13/conv2d_transpose_5/conv2d_transpose/ReadVariableOp", "shape": [4, 4, 64, 256], "dtype": "float32"}, {"name": "StatefulPartitionedCall/model/sequential_12/layer_normalization_11/Reshape/shape/0", "shape": [], "dtype": "int32"}, {"name": "StatefulPartitionedCall/model/sequential_12/layer_normalization_11/strided_slice_3/stack", "shape": [1], "dtype": "int32"}, {"name": "StatefulPartitionedCall/model/sequential_12/layer_normalization_11/strided_slice_3/stack_1", "shape": [1], "dtype": "int32"}, {"name": "StatefulPartitionedCall/model/sequential_12/layer_normalization_11/strided_slice_3/stack_2", "shape": [1], "dtype": "int32"}, {"name": "StatefulPartitionedCall/model/sequential_12/layer_normalization_11/Reshape/shape/3", "shape": [], "dtype": "int32"}, {"name": "StatefulPartitionedCall/model/sequential_12/layer_normalization_11/ones/Const", "shape": [], "dtype": "float32"}, {"name": "StatefulPartitionedCall/model/sequential_12/layer_normalization_11/strided_slice/stack", "shape": [1], "dtype": "int32"}, {"name": "StatefulPartitionedCall/model/sequential_12/layer_normalization_11/strided_slice/stack_1", "shape": [1], "dtype": "int32"}, {"name": "StatefulPartitionedCall/model/sequential_12/layer_normalization_11/strided_slice/stack_2", "shape": [1], "dtype": "int32"}, {"name": "StatefulPartitionedCall/model/sequential_12/layer_normalization_11/strided_slice_1/stack", "shape": [1], "dtype": "int32"}, {"name": "StatefulPartitionedCall/model/sequential_12/layer_normalization_11/strided_slice_1/stack_1", "shape": [1], "dtype": "int32"}, {"name": "StatefulPartitionedCall/model/sequential_12/layer_normalization_11/strided_slice_1/stack_2", "shape": [1], "dtype": "int32"}, {"name": "StatefulPartitionedCall/model/sequential_12/layer_normalization_11/strided_slice_2/stack", "shape": [1], "dtype": "int32"}, {"name": "StatefulPartitionedCall/model/sequential_12/layer_normalization_11/strided_slice_2/stack_1", "shape": [1], "dtype": "int32"}, {"name": "StatefulPartitionedCall/model/sequential_12/layer_normalization_11/strided_slice_2/stack_2", "shape": [1], "dtype": "int32"}, {"name": "StatefulPartitionedCall/model/sequential_12/layer_normalization_11/zeros/Const", "shape": [], "dtype": "float32"}, {"name": "StatefulPartitionedCall/model/sequential_12/layer_normalization_11/Const", "shape": [0], "dtype": "float32"}, {"name": "StatefulPartitionedCall/model/sequential_12/layer_normalization_11/Const_1", "shape": [0], "dtype": "float32"}, {"name": "StatefulPartitionedCall/model/sequential_12/conv2d_transpose_4/strided_slice/stack", "shape": [1], "dtype": "int32"}, {"name": "StatefulPartitionedCall/model/sequential_12/conv2d_transpose_4/strided_slice/stack_1", "shape": [1], "dtype": "int32"}, {"name": "StatefulPartitionedCall/model/sequential_12/conv2d_transpose_4/strided_slice/stack_2", "shape": [1], "dtype": "int32"}, {"name": "StatefulPartitionedCall/model/sequential_12/conv2d_transpose_4/stack/1", "shape": [], "dtype": "int32"}, {"name": "StatefulPartitionedCall/model/sequential_12/conv2d_transpose_4/stack/2", "shape": [], "dtype": "int32"}, {"name": "StatefulPartitionedCall/model/sequential_12/conv2d_transpose_4/stack/3", "shape": [], "dtype": "int32"}, {"name": "StatefulPartitionedCall/model/sequential_12/conv2d_transpose_4/conv2d_transpose/ReadVariableOp", "shape": [4, 4, 128, 512], "dtype": "float32"}, {"name": "StatefulPartitionedCall/model/sequential_11/layer_normalization_10/Reshape/shape/0", "shape": [], "dtype": "int32"}, {"name": "StatefulPartitionedCall/model/sequential_11/layer_normalization_10/strided_slice_3/stack", "shape": [1], "dtype": "int32"}, {"name": "StatefulPartitionedCall/model/sequential_11/layer_normalization_10/strided_slice_3/stack_1", "shape": [1], "dtype": "int32"}, {"name": "StatefulPartitionedCall/model/sequential_11/layer_normalization_10/strided_slice_3/stack_2", "shape": [1], "dtype": "int32"}, {"name": "StatefulPartitionedCall/model/sequential_11/layer_normalization_10/Reshape/shape/3", "shape": [], "dtype": "int32"}, {"name": "StatefulPartitionedCall/model/sequential_11/layer_normalization_10/ones/Const", "shape": [], "dtype": "float32"}, {"name": "StatefulPartitionedCall/model/sequential_11/layer_normalization_10/strided_slice/stack", "shape": [1], "dtype": "int32"}, {"name": "StatefulPartitionedCall/model/sequential_11/layer_normalization_10/strided_slice/stack_1", "shape": [1], "dtype": "int32"}, {"name": "StatefulPartitionedCall/model/sequential_11/layer_normalization_10/strided_slice/stack_2", "shape": [1], "dtype": "int32"}, {"name": "StatefulPartitionedCall/model/sequential_11/layer_normalization_10/strided_slice_1/stack", "shape": [1], "dtype": "int32"}, {"name": "StatefulPartitionedCall/model/sequential_11/layer_normalization_10/strided_slice_1/stack_1", "shape": [1], "dtype": "int32"}, {"name": "StatefulPartitionedCall/model/sequential_11/layer_normalization_10/strided_slice_1/stack_2", "shape": [1], "dtype": "int32"}, {"name": "StatefulPartitionedCall/model/sequential_11/layer_normalization_10/strided_slice_2/stack", "shape": [1], "dtype": "int32"}, {"name": "StatefulPartitionedCall/model/sequential_11/layer_normalization_10/strided_slice_2/stack_1", "shape": [1], "dtype": "int32"}, {"name": "StatefulPartitionedCall/model/sequential_11/layer_normalization_10/strided_slice_2/stack_2", "shape": [1], "dtype": "int32"}, {"name": "StatefulPartitionedCall/model/sequential_11/layer_normalization_10/zeros/Const", "shape": [], "dtype": "float32"}, {"name": "StatefulPartitionedCall/model/sequential_11/layer_normalization_10/Const", "shape": [0], "dtype": "float32"}, {"name": "StatefulPartitionedCall/model/sequential_11/layer_normalization_10/Const_1", "shape": [0], "dtype": "float32"}, {"name": "StatefulPartitionedCall/model/sequential_11/conv2d_transpose_3/strided_slice/stack", "shape": [1], "dtype": "int32"}, {"name": "StatefulPartitionedCall/model/sequential_11/conv2d_transpose_3/strided_slice/stack_1", "shape": [1], "dtype": "int32"}, {"name": "StatefulPartitionedCall/model/sequential_11/conv2d_transpose_3/strided_slice/stack_2", "shape": [1], "dtype": "int32"}, {"name": "StatefulPartitionedCall/model/sequential_11/conv2d_transpose_3/stack/1", "shape": [], "dtype": "int32"}, {"name": "StatefulPartitionedCall/model/sequential_11/conv2d_transpose_3/stack/2", "shape": [], "dtype": "int32"}, {"name": "StatefulPartitionedCall/model/sequential_11/conv2d_transpose_3/stack/3", "shape": [], "dtype": "int32"}, {"name": "StatefulPartitionedCall/model/sequential_11/conv2d_transpose_3/conv2d_transpose/ReadVariableOp", "shape": [4, 4, 256, 512], "dtype": "float32"}, {"name": "StatefulPartitionedCall/model/sequential_10/layer_normalization_9/Reshape/shape/0", "shape": [], "dtype": "int32"}, {"name": "StatefulPartitionedCall/model/sequential_10/layer_normalization_9/strided_slice_3/stack", "shape": [1], "dtype": "int32"}, {"name": "StatefulPartitionedCall/model/sequential_10/layer_normalization_9/strided_slice_3/stack_1", "shape": [1], "dtype": "int32"}, {"name": "StatefulPartitionedCall/model/sequential_10/layer_normalization_9/strided_slice_3/stack_2", "shape": [1], "dtype": "int32"}, {"name": "StatefulPartitionedCall/model/sequential_10/layer_normalization_9/Reshape/shape/3", "shape": [], "dtype": "int32"}, {"name": "StatefulPartitionedCall/model/sequential_10/layer_normalization_9/ones/Const", "shape": [], "dtype": "float32"}, {"name": "StatefulPartitionedCall/model/sequential_10/layer_normalization_9/strided_slice/stack", "shape": [1], "dtype": "int32"}, {"name": "StatefulPartitionedCall/model/sequential_10/layer_normalization_9/strided_slice/stack_1", "shape": [1], "dtype": "int32"}, {"name": "StatefulPartitionedCall/model/sequential_10/layer_normalization_9/strided_slice/stack_2", "shape": [1], "dtype": "int32"}, {"name": "StatefulPartitionedCall/model/sequential_10/layer_normalization_9/strided_slice_1/stack", "shape": [1], "dtype": "int32"}, {"name": "StatefulPartitionedCall/model/sequential_10/layer_normalization_9/strided_slice_1/stack_1", "shape": [1], "dtype": "int32"}, {"name": "StatefulPartitionedCall/model/sequential_10/layer_normalization_9/strided_slice_1/stack_2", "shape": [1], "dtype": "int32"}, {"name": "StatefulPartitionedCall/model/sequential_10/layer_normalization_9/strided_slice_2/stack", "shape": [1], "dtype": "int32"}, {"name": "StatefulPartitionedCall/model/sequential_10/layer_normalization_9/strided_slice_2/stack_1", "shape": [1], "dtype": "int32"}, {"name": "StatefulPartitionedCall/model/sequential_10/layer_normalization_9/strided_slice_2/stack_2", "shape": [1], "dtype": "int32"}, {"name": "StatefulPartitionedCall/model/sequential_10/layer_normalization_9/zeros/Const", "shape": [], "dtype": "float32"}, {"name": "StatefulPartitionedCall/model/sequential_10/layer_normalization_9/Const", "shape": [0], "dtype": "float32"}, {"name": "StatefulPartitionedCall/model/sequential_10/layer_normalization_9/Const_1", "shape": [0], "dtype": "float32"}, {"name": "StatefulPartitionedCall/model/sequential_10/conv2d_transpose_2/strided_slice/stack", "shape": [1], "dtype": "int32"}, {"name": "StatefulPartitionedCall/model/sequential_10/conv2d_transpose_2/strided_slice/stack_1", "shape": [1], "dtype": "int32"}, {"name": "StatefulPartitionedCall/model/sequential_10/conv2d_transpose_2/strided_slice/stack_2", "shape": [1], "dtype": "int32"}, {"name": "StatefulPartitionedCall/model/sequential_10/conv2d_transpose_2/stack/1", "shape": [], "dtype": "int32"}, {"name": "StatefulPartitionedCall/model/sequential_10/conv2d_transpose_2/stack/2", "shape": [], "dtype": "int32"}, {"name": "StatefulPartitionedCall/model/sequential_10/conv2d_transpose_2/stack/3", "shape": [], "dtype": "int32"}, {"name": "StatefulPartitionedCall/model/sequential_10/conv2d_transpose_2/conv2d_transpose/ReadVariableOp", "shape": [4, 4, 256, 512], "dtype": "float32"}, {"name": "StatefulPartitionedCall/model/sequential_9/layer_normalization_8/Reshape/shape/0", "shape": [], "dtype": "int32"}, {"name": "StatefulPartitionedCall/model/sequential_9/layer_normalization_8/strided_slice_3/stack", "shape": [1], "dtype": "int32"}, {"name": "StatefulPartitionedCall/model/sequential_9/layer_normalization_8/strided_slice_3/stack_1", "shape": [1], "dtype": "int32"}, {"name": "StatefulPartitionedCall/model/sequential_9/layer_normalization_8/strided_slice_3/stack_2", "shape": [1], "dtype": "int32"}, {"name": "StatefulPartitionedCall/model/sequential_9/layer_normalization_8/Reshape/shape/3", "shape": [], "dtype": "int32"}, {"name": "StatefulPartitionedCall/model/sequential_9/layer_normalization_8/ones/Const", "shape": [], "dtype": "float32"}, {"name": "StatefulPartitionedCall/model/sequential_9/layer_normalization_8/strided_slice/stack", "shape": [1], "dtype": "int32"}, {"name": "StatefulPartitionedCall/model/sequential_9/layer_normalization_8/strided_slice/stack_1", "shape": [1], "dtype": "int32"}, {"name": "StatefulPartitionedCall/model/sequential_9/layer_normalization_8/strided_slice/stack_2", "shape": [1], "dtype": "int32"}, {"name": "StatefulPartitionedCall/model/sequential_9/layer_normalization_8/strided_slice_1/stack", "shape": [1], "dtype": "int32"}, {"name": "StatefulPartitionedCall/model/sequential_9/layer_normalization_8/strided_slice_1/stack_1", "shape": [1], "dtype": "int32"}, {"name": "StatefulPartitionedCall/model/sequential_9/layer_normalization_8/strided_slice_1/stack_2", "shape": [1], "dtype": "int32"}, {"name": "StatefulPartitionedCall/model/sequential_9/layer_normalization_8/strided_slice_2/stack", "shape": [1], "dtype": "int32"}, {"name": "StatefulPartitionedCall/model/sequential_9/layer_normalization_8/strided_slice_2/stack_1", "shape": [1], "dtype": "int32"}, {"name": "StatefulPartitionedCall/model/sequential_9/layer_normalization_8/strided_slice_2/stack_2", "shape": [1], "dtype": "int32"}, {"name": "StatefulPartitionedCall/model/sequential_9/layer_normalization_8/zeros/Const", "shape": [], "dtype": "float32"}, {"name": "StatefulPartitionedCall/model/sequential_9/layer_normalization_8/Const", "shape": [0], "dtype": "float32"}, {"name": "StatefulPartitionedCall/model/sequential_9/layer_normalization_8/Const_1", "shape": [0], "dtype": "float32"}, {"name": "StatefulPartitionedCall/model/sequential_9/conv2d_transpose_1/strided_slice/stack", "shape": [1], "dtype": "int32"}, {"name": "StatefulPartitionedCall/model/sequential_9/conv2d_transpose_1/strided_slice/stack_1", "shape": [1], "dtype": "int32"}, {"name": "StatefulPartitionedCall/model/sequential_9/conv2d_transpose_1/strided_slice/stack_2", "shape": [1], "dtype": "int32"}, {"name": "StatefulPartitionedCall/model/sequential_9/conv2d_transpose_1/stack/1", "shape": [], "dtype": "int32"}, {"name": "StatefulPartitionedCall/model/sequential_9/conv2d_transpose_1/stack/2", "shape": [], "dtype": "int32"}, {"name": "StatefulPartitionedCall/model/sequential_9/conv2d_transpose_1/stack/3", "shape": [], "dtype": "int32"}, {"name": "StatefulPartitionedCall/model/sequential_9/conv2d_transpose_1/conv2d_transpose/ReadVariableOp", "shape": [4, 4, 256, 512], "dtype": "float32"}, {"name": "StatefulPartitionedCall/model/sequential_8/layer_normalization_7/Reshape/shape/0", "shape": [], "dtype": "int32"}, {"name": "StatefulPartitionedCall/model/sequential_8/layer_normalization_7/strided_slice_3/stack", "shape": [1], "dtype": "int32"}, {"name": "StatefulPartitionedCall/model/sequential_8/layer_normalization_7/strided_slice_3/stack_1", "shape": [1], "dtype": "int32"}, {"name": "StatefulPartitionedCall/model/sequential_8/layer_normalization_7/strided_slice_3/stack_2", "shape": [1], "dtype": "int32"}, {"name": "StatefulPartitionedCall/model/sequential_8/layer_normalization_7/Reshape/shape/3", "shape": [], "dtype": "int32"}, {"name": "StatefulPartitionedCall/model/sequential_8/layer_normalization_7/ones/Const", "shape": [], "dtype": "float32"}, {"name": "StatefulPartitionedCall/model/sequential_8/layer_normalization_7/strided_slice/stack", "shape": [1], "dtype": "int32"}, {"name": "StatefulPartitionedCall/model/sequential_8/layer_normalization_7/strided_slice/stack_1", "shape": [1], "dtype": "int32"}, {"name": "StatefulPartitionedCall/model/sequential_8/layer_normalization_7/strided_slice/stack_2", "shape": [1], "dtype": "int32"}, {"name": "StatefulPartitionedCall/model/sequential_8/layer_normalization_7/strided_slice_1/stack", "shape": [1], "dtype": "int32"}, {"name": "StatefulPartitionedCall/model/sequential_8/layer_normalization_7/strided_slice_1/stack_1", "shape": [1], "dtype": "int32"}, {"name": "StatefulPartitionedCall/model/sequential_8/layer_normalization_7/strided_slice_1/stack_2", "shape": [1], "dtype": "int32"}, {"name": "StatefulPartitionedCall/model/sequential_8/layer_normalization_7/strided_slice_2/stack", "shape": [1], "dtype": "int32"}, {"name": "StatefulPartitionedCall/model/sequential_8/layer_normalization_7/strided_slice_2/stack_1", "shape": [1], "dtype": "int32"}, {"name": "StatefulPartitionedCall/model/sequential_8/layer_normalization_7/strided_slice_2/stack_2", "shape": [1], "dtype": "int32"}, {"name": "StatefulPartitionedCall/model/sequential_8/layer_normalization_7/zeros/Const", "shape": [], "dtype": "float32"}, {"name": "StatefulPartitionedCall/model/sequential_8/layer_normalization_7/Const", "shape": [0], "dtype": "float32"}, {"name": "StatefulPartitionedCall/model/sequential_8/layer_normalization_7/Const_1", "shape": [0], "dtype": "float32"}, {"name": "StatefulPartitionedCall/model/sequential_8/conv2d_transpose/strided_slice/stack", "shape": [1], "dtype": "int32"}, {"name": "StatefulPartitionedCall/model/sequential_8/conv2d_transpose/strided_slice/stack_1", "shape": [1], "dtype": "int32"}, {"name": "StatefulPartitionedCall/model/sequential_8/conv2d_transpose/strided_slice/stack_2", "shape": [1], "dtype": "int32"}, {"name": "StatefulPartitionedCall/model/sequential_8/conv2d_transpose/stack/1", "shape": [], "dtype": "int32"}, {"name": "StatefulPartitionedCall/model/sequential_8/conv2d_transpose/stack/2", "shape": [], "dtype": "int32"}, {"name": "StatefulPartitionedCall/model/sequential_8/conv2d_transpose/stack/3", "shape": [], "dtype": "int32"}, {"name": "StatefulPartitionedCall/model/sequential_8/conv2d_transpose/conv2d_transpose/ReadVariableOp", "shape": [4, 4, 256, 256], "dtype": "float32"}, {"name": "StatefulPartitionedCall/model/sequential_7/layer_normalization_6/Reshape/shape/0", "shape": [], "dtype": "int32"}, {"name": "StatefulPartitionedCall/model/sequential_7/layer_normalization_6/strided_slice_3/stack", "shape": [1], "dtype": "int32"}, {"name": "StatefulPartitionedCall/model/sequential_7/layer_normalization_6/strided_slice_3/stack_1", "shape": [1], "dtype": "int32"}, {"name": "StatefulPartitionedCall/model/sequential_7/layer_normalization_6/strided_slice_3/stack_2", "shape": [1], "dtype": "int32"}, {"name": "StatefulPartitionedCall/model/sequential_7/layer_normalization_6/Reshape/shape/3", "shape": [], "dtype": "int32"}, {"name": "StatefulPartitionedCall/model/sequential_7/layer_normalization_6/ones/Const", "shape": [], "dtype": "float32"}, {"name": "StatefulPartitionedCall/model/sequential_7/layer_normalization_6/strided_slice/stack", "shape": [1], "dtype": "int32"}, {"name": "StatefulPartitionedCall/model/sequential_7/layer_normalization_6/strided_slice/stack_1", "shape": [1], "dtype": "int32"}, {"name": "StatefulPartitionedCall/model/sequential_7/layer_normalization_6/strided_slice/stack_2", "shape": [1], "dtype": "int32"}, {"name": "StatefulPartitionedCall/model/sequential_7/layer_normalization_6/strided_slice_1/stack", "shape": [1], "dtype": "int32"}, {"name": "StatefulPartitionedCall/model/sequential_7/layer_normalization_6/strided_slice_1/stack_1", "shape": [1], "dtype": "int32"}, {"name": "StatefulPartitionedCall/model/sequential_7/layer_normalization_6/strided_slice_1/stack_2", "shape": [1], "dtype": "int32"}, {"name": "StatefulPartitionedCall/model/sequential_7/layer_normalization_6/strided_slice_2/stack", "shape": [1], "dtype": "int32"}, {"name": "StatefulPartitionedCall/model/sequential_7/layer_normalization_6/strided_slice_2/stack_1", "shape": [1], "dtype": "int32"}, {"name": "StatefulPartitionedCall/model/sequential_7/layer_normalization_6/strided_slice_2/stack_2", "shape": [1], "dtype": "int32"}, {"name": "StatefulPartitionedCall/model/sequential_7/layer_normalization_6/zeros/Const", "shape": [], "dtype": "float32"}, {"name": "StatefulPartitionedCall/model/sequential_7/layer_normalization_6/Const", "shape": [0], "dtype": "float32"}, {"name": "StatefulPartitionedCall/model/sequential_7/layer_normalization_6/Const_1", "shape": [0], "dtype": "float32"}, {"name": "StatefulPartitionedCall/model/sequential_7/conv2d_7/Conv2D/ReadVariableOp", "shape": [4, 4, 256, 256], "dtype": "float32"}, {"name": "StatefulPartitionedCall/model/sequential_7/layer_normalization_6/mul_4/ReadVariableOp", "shape": [256], "dtype": "float32"}, {"name": "StatefulPartitionedCall/model/sequential_7/layer_normalization_6/add/ReadVariableOp", "shape": [256], "dtype": "float32"}, {"name": "StatefulPartitionedCall/model/sequential_8/layer_normalization_7/mul_4/ReadVariableOp", "shape": [256], "dtype": "float32"}, {"name": "StatefulPartitionedCall/model/sequential_8/layer_normalization_7/add/ReadVariableOp", "shape": [256], "dtype": "float32"}, {"name": "StatefulPartitionedCall/model/sequential_6/layer_normalization_5/Reshape/shape/0", "shape": [], "dtype": "int32"}, {"name": "StatefulPartitionedCall/model/sequential_6/layer_normalization_5/strided_slice_3/stack", "shape": [1], "dtype": "int32"}, {"name": "StatefulPartitionedCall/model/sequential_6/layer_normalization_5/strided_slice_3/stack_1", "shape": [1], "dtype": "int32"}, {"name": "StatefulPartitionedCall/model/sequential_6/layer_normalization_5/strided_slice_3/stack_2", "shape": [1], "dtype": "int32"}, {"name": "StatefulPartitionedCall/model/sequential_6/layer_normalization_5/Reshape/shape/3", "shape": [], "dtype": "int32"}, {"name": "StatefulPartitionedCall/model/sequential_6/layer_normalization_5/ones/Const", "shape": [], "dtype": "float32"}, {"name": "StatefulPartitionedCall/model/sequential_6/layer_normalization_5/strided_slice/stack", "shape": [1], "dtype": "int32"}, {"name": "StatefulPartitionedCall/model/sequential_6/layer_normalization_5/strided_slice/stack_1", "shape": [1], "dtype": "int32"}, {"name": "StatefulPartitionedCall/model/sequential_6/layer_normalization_5/strided_slice/stack_2", "shape": [1], "dtype": "int32"}, {"name": "StatefulPartitionedCall/model/sequential_6/layer_normalization_5/strided_slice_1/stack", "shape": [1], "dtype": "int32"}, {"name": "StatefulPartitionedCall/model/sequential_6/layer_normalization_5/strided_slice_1/stack_1", "shape": [1], "dtype": "int32"}, {"name": "StatefulPartitionedCall/model/sequential_6/layer_normalization_5/strided_slice_1/stack_2", "shape": [1], "dtype": "int32"}, {"name": "StatefulPartitionedCall/model/sequential_6/layer_normalization_5/strided_slice_2/stack", "shape": [1], "dtype": "int32"}, {"name": "StatefulPartitionedCall/model/sequential_6/layer_normalization_5/strided_slice_2/stack_1", "shape": [1], "dtype": "int32"}, {"name": "StatefulPartitionedCall/model/sequential_6/layer_normalization_5/strided_slice_2/stack_2", "shape": [1], "dtype": "int32"}, {"name": "StatefulPartitionedCall/model/sequential_6/layer_normalization_5/zeros/Const", "shape": [], "dtype": "float32"}, {"name": "StatefulPartitionedCall/model/sequential_6/layer_normalization_5/Const", "shape": [0], "dtype": "float32"}, {"name": "StatefulPartitionedCall/model/sequential_6/layer_normalization_5/Const_1", "shape": [0], "dtype": "float32"}, {"name": "StatefulPartitionedCall/model/sequential_6/conv2d_6/Conv2D/ReadVariableOp", "shape": [4, 4, 256, 256], "dtype": "float32"}, {"name": "StatefulPartitionedCall/model/sequential_6/layer_normalization_5/mul_4/ReadVariableOp", "shape": [256], "dtype": "float32"}, {"name": "StatefulPartitionedCall/model/sequential_6/layer_normalization_5/add/ReadVariableOp", "shape": [256], "dtype": "float32"}, {"name": "StatefulPartitionedCall/model/concatenate/concat/axis", "shape": [], "dtype": "int32"}, {"name": "StatefulPartitionedCall/model/sequential_9/layer_normalization_8/mul_4/ReadVariableOp", "shape": [256], "dtype": "float32"}, {"name": "StatefulPartitionedCall/model/sequential_9/layer_normalization_8/add/ReadVariableOp", "shape": [256], "dtype": "float32"}, {"name": "StatefulPartitionedCall/model/sequential_5/layer_normalization_4/Reshape/shape/0", "shape": [], "dtype": "int32"}, {"name": "StatefulPartitionedCall/model/sequential_5/layer_normalization_4/strided_slice_3/stack", "shape": [1], "dtype": "int32"}, {"name": "StatefulPartitionedCall/model/sequential_5/layer_normalization_4/strided_slice_3/stack_1", "shape": [1], "dtype": "int32"}, {"name": "StatefulPartitionedCall/model/sequential_5/layer_normalization_4/strided_slice_3/stack_2", "shape": [1], "dtype": "int32"}, {"name": "StatefulPartitionedCall/model/sequential_5/layer_normalization_4/Reshape/shape/3", "shape": [], "dtype": "int32"}, {"name": "StatefulPartitionedCall/model/sequential_5/layer_normalization_4/ones/Const", "shape": [], "dtype": "float32"}, {"name": "StatefulPartitionedCall/model/sequential_5/layer_normalization_4/strided_slice/stack", "shape": [1], "dtype": "int32"}, {"name": "StatefulPartitionedCall/model/sequential_5/layer_normalization_4/strided_slice/stack_1", "shape": [1], "dtype": "int32"}, {"name": "StatefulPartitionedCall/model/sequential_5/layer_normalization_4/strided_slice/stack_2", "shape": [1], "dtype": "int32"}, {"name": "StatefulPartitionedCall/model/sequential_5/layer_normalization_4/strided_slice_1/stack", "shape": [1], "dtype": "int32"}, {"name": "StatefulPartitionedCall/model/sequential_5/layer_normalization_4/strided_slice_1/stack_1", "shape": [1], "dtype": "int32"}, {"name": "StatefulPartitionedCall/model/sequential_5/layer_normalization_4/strided_slice_1/stack_2", "shape": [1], "dtype": "int32"}, {"name": "StatefulPartitionedCall/model/sequential_5/layer_normalization_4/strided_slice_2/stack", "shape": [1], "dtype": "int32"}, {"name": "StatefulPartitionedCall/model/sequential_5/layer_normalization_4/strided_slice_2/stack_1", "shape": [1], "dtype": "int32"}, {"name": "StatefulPartitionedCall/model/sequential_5/layer_normalization_4/strided_slice_2/stack_2", "shape": [1], "dtype": "int32"}, {"name": "StatefulPartitionedCall/model/sequential_5/layer_normalization_4/zeros/Const", "shape": [], "dtype": "float32"}, {"name": "StatefulPartitionedCall/model/sequential_5/layer_normalization_4/Const", "shape": [0], "dtype": "float32"}, {"name": "StatefulPartitionedCall/model/sequential_5/layer_normalization_4/Const_1", "shape": [0], "dtype": "float32"}, {"name": "StatefulPartitionedCall/model/sequential_5/conv2d_5/Conv2D/ReadVariableOp", "shape": [4, 4, 256, 256], "dtype": "float32"}, {"name": "StatefulPartitionedCall/model/sequential_5/layer_normalization_4/mul_4/ReadVariableOp", "shape": [256], "dtype": "float32"}, {"name": "StatefulPartitionedCall/model/sequential_5/layer_normalization_4/add/ReadVariableOp", "shape": [256], "dtype": "float32"}, {"name": "StatefulPartitionedCall/model/concatenate_1/concat/axis", "shape": [], "dtype": "int32"}, {"name": "StatefulPartitionedCall/model/sequential_10/layer_normalization_9/mul_4/ReadVariableOp", "shape": [256], "dtype": "float32"}, {"name": "StatefulPartitionedCall/model/sequential_10/layer_normalization_9/add/ReadVariableOp", "shape": [256], "dtype": "float32"}, {"name": "StatefulPartitionedCall/model/sequential_4/layer_normalization_3/Reshape/shape/0", "shape": [], "dtype": "int32"}, {"name": "StatefulPartitionedCall/model/sequential_4/layer_normalization_3/strided_slice_3/stack", "shape": [1], "dtype": "int32"}, {"name": "StatefulPartitionedCall/model/sequential_4/layer_normalization_3/strided_slice_3/stack_1", "shape": [1], "dtype": "int32"}, {"name": "StatefulPartitionedCall/model/sequential_4/layer_normalization_3/strided_slice_3/stack_2", "shape": [1], "dtype": "int32"}, {"name": "StatefulPartitionedCall/model/sequential_4/layer_normalization_3/Reshape/shape/3", "shape": [], "dtype": "int32"}, {"name": "StatefulPartitionedCall/model/sequential_4/layer_normalization_3/ones/Const", "shape": [], "dtype": "float32"}, {"name": "StatefulPartitionedCall/model/sequential_4/layer_normalization_3/strided_slice/stack", "shape": [1], "dtype": "int32"}, {"name": "StatefulPartitionedCall/model/sequential_4/layer_normalization_3/strided_slice/stack_1", "shape": [1], "dtype": "int32"}, {"name": "StatefulPartitionedCall/model/sequential_4/layer_normalization_3/strided_slice/stack_2", "shape": [1], "dtype": "int32"}, {"name": "StatefulPartitionedCall/model/sequential_4/layer_normalization_3/strided_slice_1/stack", "shape": [1], "dtype": "int32"}, {"name": "StatefulPartitionedCall/model/sequential_4/layer_normalization_3/strided_slice_1/stack_1", "shape": [1], "dtype": "int32"}, {"name": "StatefulPartitionedCall/model/sequential_4/layer_normalization_3/strided_slice_1/stack_2", "shape": [1], "dtype": "int32"}, {"name": "StatefulPartitionedCall/model/sequential_4/layer_normalization_3/strided_slice_2/stack", "shape": [1], "dtype": "int32"}, {"name": "StatefulPartitionedCall/model/sequential_4/layer_normalization_3/strided_slice_2/stack_1", "shape": [1], "dtype": "int32"}, {"name": "StatefulPartitionedCall/model/sequential_4/layer_normalization_3/strided_slice_2/stack_2", "shape": [1], "dtype": "int32"}, {"name": "StatefulPartitionedCall/model/sequential_4/layer_normalization_3/zeros/Const", "shape": [], "dtype": "float32"}, {"name": "StatefulPartitionedCall/model/sequential_4/layer_normalization_3/Const", "shape": [0], "dtype": "float32"}, {"name": "StatefulPartitionedCall/model/sequential_4/layer_normalization_3/Const_1", "shape": [0], "dtype": "float32"}, {"name": "StatefulPartitionedCall/model/sequential_4/conv2d_4/Conv2D/ReadVariableOp", "shape": [4, 4, 256, 256], "dtype": "float32"}, {"name": "StatefulPartitionedCall/model/sequential_4/layer_normalization_3/mul_4/ReadVariableOp", "shape": [256], "dtype": "float32"}, {"name": "StatefulPartitionedCall/model/sequential_4/layer_normalization_3/add/ReadVariableOp", "shape": [256], "dtype": "float32"}, {"name": "StatefulPartitionedCall/model/concatenate_2/concat/axis", "shape": [], "dtype": "int32"}, {"name": "StatefulPartitionedCall/model/sequential_11/layer_normalization_10/mul_4/ReadVariableOp", "shape": [256], "dtype": "float32"}, {"name": "StatefulPartitionedCall/model/sequential_11/layer_normalization_10/add/ReadVariableOp", "shape": [256], "dtype": "float32"}, {"name": "StatefulPartitionedCall/model/sequential_3/layer_normalization_2/Reshape/shape/0", "shape": [], "dtype": "int32"}, {"name": "StatefulPartitionedCall/model/sequential_3/layer_normalization_2/strided_slice_3/stack", "shape": [1], "dtype": "int32"}, {"name": "StatefulPartitionedCall/model/sequential_3/layer_normalization_2/strided_slice_3/stack_1", "shape": [1], "dtype": "int32"}, {"name": "StatefulPartitionedCall/model/sequential_3/layer_normalization_2/strided_slice_3/stack_2", "shape": [1], "dtype": "int32"}, {"name": "StatefulPartitionedCall/model/sequential_3/layer_normalization_2/Reshape/shape/3", "shape": [], "dtype": "int32"}, {"name": "StatefulPartitionedCall/model/sequential_3/layer_normalization_2/ones/Const", "shape": [], "dtype": "float32"}, {"name": "StatefulPartitionedCall/model/sequential_3/layer_normalization_2/strided_slice/stack", "shape": [1], "dtype": "int32"}, {"name": "StatefulPartitionedCall/model/sequential_3/layer_normalization_2/strided_slice/stack_1", "shape": [1], "dtype": "int32"}, {"name": "StatefulPartitionedCall/model/sequential_3/layer_normalization_2/strided_slice/stack_2", "shape": [1], "dtype": "int32"}, {"name": "StatefulPartitionedCall/model/sequential_3/layer_normalization_2/strided_slice_1/stack", "shape": [1], "dtype": "int32"}, {"name": "StatefulPartitionedCall/model/sequential_3/layer_normalization_2/strided_slice_1/stack_1", "shape": [1], "dtype": "int32"}, {"name": "StatefulPartitionedCall/model/sequential_3/layer_normalization_2/strided_slice_1/stack_2", "shape": [1], "dtype": "int32"}, {"name": "StatefulPartitionedCall/model/sequential_3/layer_normalization_2/strided_slice_2/stack", "shape": [1], "dtype": "int32"}, {"name": "StatefulPartitionedCall/model/sequential_3/layer_normalization_2/strided_slice_2/stack_1", "shape": [1], "dtype": "int32"}, {"name": "StatefulPartitionedCall/model/sequential_3/layer_normalization_2/strided_slice_2/stack_2", "shape": [1], "dtype": "int32"}, {"name": "StatefulPartitionedCall/model/sequential_3/layer_normalization_2/zeros/Const", "shape": [], "dtype": "float32"}, {"name": "StatefulPartitionedCall/model/sequential_3/layer_normalization_2/Const", "shape": [0], "dtype": "float32"}, {"name": "StatefulPartitionedCall/model/sequential_3/layer_normalization_2/Const_1", "shape": [0], "dtype": "float32"}, {"name": "StatefulPartitionedCall/model/sequential_3/conv2d_3/Conv2D/ReadVariableOp", "shape": [4, 4, 128, 256], "dtype": "float32"}, {"name": "StatefulPartitionedCall/model/sequential_3/layer_normalization_2/mul_4/ReadVariableOp", "shape": [256], "dtype": "float32"}, {"name": "StatefulPartitionedCall/model/sequential_3/layer_normalization_2/add/ReadVariableOp", "shape": [256], "dtype": "float32"}, {"name": "StatefulPartitionedCall/model/concatenate_3/concat/axis", "shape": [], "dtype": "int32"}, {"name": "StatefulPartitionedCall/model/sequential_12/layer_normalization_11/mul_4/ReadVariableOp", "shape": [128], "dtype": "float32"}, {"name": "StatefulPartitionedCall/model/sequential_12/layer_normalization_11/add/ReadVariableOp", "shape": [128], "dtype": "float32"}, {"name": "StatefulPartitionedCall/model/sequential_2/layer_normalization_1/Reshape/shape/0", "shape": [], "dtype": "int32"}, {"name": "StatefulPartitionedCall/model/sequential_2/layer_normalization_1/strided_slice_3/stack", "shape": [1], "dtype": "int32"}, {"name": "StatefulPartitionedCall/model/sequential_2/layer_normalization_1/strided_slice_3/stack_1", "shape": [1], "dtype": "int32"}, {"name": "StatefulPartitionedCall/model/sequential_2/layer_normalization_1/strided_slice_3/stack_2", "shape": [1], "dtype": "int32"}, {"name": "StatefulPartitionedCall/model/sequential_2/layer_normalization_1/Reshape/shape/3", "shape": [], "dtype": "int32"}, {"name": "StatefulPartitionedCall/model/sequential_2/layer_normalization_1/ones/Const", "shape": [], "dtype": "float32"}, {"name": "StatefulPartitionedCall/model/sequential_2/layer_normalization_1/strided_slice/stack", "shape": [1], "dtype": "int32"}, {"name": "StatefulPartitionedCall/model/sequential_2/layer_normalization_1/strided_slice/stack_1", "shape": [1], "dtype": "int32"}, {"name": "StatefulPartitionedCall/model/sequential_2/layer_normalization_1/strided_slice/stack_2", "shape": [1], "dtype": "int32"}, {"name": "StatefulPartitionedCall/model/sequential_2/layer_normalization_1/strided_slice_1/stack", "shape": [1], "dtype": "int32"}, {"name": "StatefulPartitionedCall/model/sequential_2/layer_normalization_1/strided_slice_1/stack_1", "shape": [1], "dtype": "int32"}, {"name": "StatefulPartitionedCall/model/sequential_2/layer_normalization_1/strided_slice_1/stack_2", "shape": [1], "dtype": "int32"}, {"name": "StatefulPartitionedCall/model/sequential_2/layer_normalization_1/strided_slice_2/stack", "shape": [1], "dtype": "int32"}, {"name": "StatefulPartitionedCall/model/sequential_2/layer_normalization_1/strided_slice_2/stack_1", "shape": [1], "dtype": "int32"}, {"name": "StatefulPartitionedCall/model/sequential_2/layer_normalization_1/strided_slice_2/stack_2", "shape": [1], "dtype": "int32"}, {"name": "StatefulPartitionedCall/model/sequential_2/layer_normalization_1/zeros/Const", "shape": [], "dtype": "float32"}, {"name": "StatefulPartitionedCall/model/sequential_2/layer_normalization_1/Const", "shape": [0], "dtype": "float32"}, {"name": "StatefulPartitionedCall/model/sequential_2/layer_normalization_1/Const_1", "shape": [0], "dtype": "float32"}, {"name": "StatefulPartitionedCall/model/sequential_2/conv2d_2/Conv2D/ReadVariableOp", "shape": [4, 4, 64, 128], "dtype": "float32"}, {"name": "StatefulPartitionedCall/model/sequential_2/layer_normalization_1/mul_4/ReadVariableOp", "shape": [128], "dtype": "float32"}, {"name": "StatefulPartitionedCall/model/sequential_2/layer_normalization_1/add/ReadVariableOp", "shape": [128], "dtype": "float32"}, {"name": "StatefulPartitionedCall/model/concatenate_4/concat/axis", "shape": [], "dtype": "int32"}, {"name": "StatefulPartitionedCall/model/sequential_13/layer_normalization_12/mul_4/ReadVariableOp", "shape": [64], "dtype": "float32"}, {"name": "StatefulPartitionedCall/model/sequential_13/layer_normalization_12/add/ReadVariableOp", "shape": [64], "dtype": "float32"}, {"name": "StatefulPartitionedCall/model/sequential_1/layer_normalization/Reshape/shape/0", "shape": [], "dtype": "int32"}, {"name": "StatefulPartitionedCall/model/sequential_1/layer_normalization/strided_slice_3/stack", "shape": [1], "dtype": "int32"}, {"name": "StatefulPartitionedCall/model/sequential_1/layer_normalization/strided_slice_3/stack_1", "shape": [1], "dtype": "int32"}, {"name": "StatefulPartitionedCall/model/sequential_1/layer_normalization/strided_slice_3/stack_2", "shape": [1], "dtype": "int32"}, {"name": "StatefulPartitionedCall/model/sequential_1/layer_normalization/Reshape/shape/3", "shape": [], "dtype": "int32"}, {"name": "StatefulPartitionedCall/model/sequential_1/layer_normalization/ones/Const", "shape": [], "dtype": "float32"}, {"name": "StatefulPartitionedCall/model/sequential_1/layer_normalization/strided_slice/stack", "shape": [1], "dtype": "int32"}, {"name": "StatefulPartitionedCall/model/sequential_1/layer_normalization/strided_slice/stack_1", "shape": [1], "dtype": "int32"}, {"name": "StatefulPartitionedCall/model/sequential_1/layer_normalization/strided_slice/stack_2", "shape": [1], "dtype": "int32"}, {"name": "StatefulPartitionedCall/model/sequential_1/layer_normalization/strided_slice_1/stack", "shape": [1], "dtype": "int32"}, {"name": "StatefulPartitionedCall/model/sequential_1/layer_normalization/strided_slice_1/stack_1", "shape": [1], "dtype": "int32"}, {"name": "StatefulPartitionedCall/model/sequential_1/layer_normalization/strided_slice_1/stack_2", "shape": [1], "dtype": "int32"}, {"name": "StatefulPartitionedCall/model/sequential_1/layer_normalization/strided_slice_2/stack", "shape": [1], "dtype": "int32"}, {"name": "StatefulPartitionedCall/model/sequential_1/layer_normalization/strided_slice_2/stack_1", "shape": [1], "dtype": "int32"}, {"name": "StatefulPartitionedCall/model/sequential_1/layer_normalization/strided_slice_2/stack_2", "shape": [1], "dtype": "int32"}, {"name": "StatefulPartitionedCall/model/sequential_1/layer_normalization/zeros/Const", "shape": [], "dtype": "float32"}, {"name": "StatefulPartitionedCall/model/sequential_1/layer_normalization/Const", "shape": [0], "dtype": "float32"}, {"name": "StatefulPartitionedCall/model/sequential_1/layer_normalization/Const_1", "shape": [0], "dtype": "float32"}, {"name": "StatefulPartitionedCall/model/sequential_1/conv2d_1/Conv2D/ReadVariableOp", "shape": [4, 4, 32, 64], "dtype": "float32"}, {"name": "StatefulPartitionedCall/model/sequential_1/layer_normalization/mul_4/ReadVariableOp", "shape": [64], "dtype": "float32"}, {"name": "StatefulPartitionedCall/model/sequential_1/layer_normalization/add/ReadVariableOp", "shape": [64], "dtype": "float32"}, {"name": "StatefulPartitionedCall/model/concatenate_5/concat/axis", "shape": [], "dtype": "int32"}, {"name": "StatefulPartitionedCall/model/sequential_14/layer_normalization_13/mul_4/ReadVariableOp", "shape": [32], "dtype": "float32"}, {"name": "StatefulPartitionedCall/model/sequential_14/layer_normalization_13/add/ReadVariableOp", "shape": [32], "dtype": "float32"}, {"name": "StatefulPartitionedCall/model/sequential/conv2d/Conv2D/ReadVariableOp", "shape": [4, 4, 3, 32], "dtype": "float32"}, {"name": "StatefulPartitionedCall/model/concatenate_6/concat/axis", "shape": [], "dtype": "int32"}, {"name": "StatefulPartitionedCall/model/conv2d_transpose_7/BiasAdd/ReadVariableOp", "shape": [3], "dtype": "float32"}, {"name": "ConstantFolding/StatefulPartitionedCall/model/sequential_1/layer_normalization/ones/packed_const_axis", "shape": [], "dtype": "int32"}, {"name": "ConstantFolding/StatefulPartitionedCall/model/sequential_1/layer_normalization/zeros/packed_const_axis", "shape": [], "dtype": "int32"}, {"name": "ConstantFolding/StatefulPartitionedCall/model/sequential_2/layer_normalization_1/ones/packed_const_axis", "shape": [], "dtype": "int32"}, {"name": "ConstantFolding/StatefulPartitionedCall/model/sequential_2/layer_normalization_1/zeros/packed_const_axis", "shape": [], "dtype": "int32"}, {"name": "ConstantFolding/StatefulPartitionedCall/model/sequential_3/layer_normalization_2/ones/packed_const_axis", "shape": [], "dtype": "int32"}, {"name": "ConstantFolding/StatefulPartitionedCall/model/sequential_3/layer_normalization_2/zeros/packed_const_axis", "shape": [], "dtype": "int32"}, {"name": "ConstantFolding/StatefulPartitionedCall/model/sequential_4/layer_normalization_3/ones/packed_const_axis", "shape": [], "dtype": "int32"}, {"name": "ConstantFolding/StatefulPartitionedCall/model/sequential_4/layer_normalization_3/zeros/packed_const_axis", "shape": [], "dtype": "int32"}, {"name": "ConstantFolding/StatefulPartitionedCall/model/sequential_5/layer_normalization_4/ones/packed_const_axis", "shape": [], "dtype": "int32"}, {"name": "ConstantFolding/StatefulPartitionedCall/model/sequential_5/layer_normalization_4/zeros/packed_const_axis", "shape": [], "dtype": "int32"}, {"name": "ConstantFolding/StatefulPartitionedCall/model/sequential_6/layer_normalization_5/ones/packed_const_axis", "shape": [], "dtype": "int32"}, {"name": "ConstantFolding/StatefulPartitionedCall/model/sequential_6/layer_normalization_5/zeros/packed_const_axis", "shape": [], "dtype": "int32"}, {"name": "ConstantFolding/StatefulPartitionedCall/model/sequential_7/layer_normalization_6/ones/packed_const_axis", "shape": [], "dtype": "int32"}, {"name": "ConstantFolding/StatefulPartitionedCall/model/sequential_7/layer_normalization_6/zeros/packed_const_axis", "shape": [], "dtype": "int32"}, {"name": "ConstantFolding/StatefulPartitionedCall/model/sequential_8/layer_normalization_7/ones/packed_const_axis", "shape": [], "dtype": "int32"}, {"name": "ConstantFolding/StatefulPartitionedCall/model/sequential_8/layer_normalization_7/zeros/packed_const_axis", "shape": [], "dtype": "int32"}, {"name": "ConstantFolding/StatefulPartitionedCall/model/sequential_9/layer_normalization_8/ones/packed_const_axis", "shape": [], "dtype": "int32"}, {"name": "ConstantFolding/StatefulPartitionedCall/model/sequential_9/layer_normalization_8/zeros/packed_const_axis", "shape": [], "dtype": "int32"}, {"name": "ConstantFolding/StatefulPartitionedCall/model/sequential_10/layer_normalization_9/ones/packed_const_axis", "shape": [], "dtype": "int32"}, {"name": "ConstantFolding/StatefulPartitionedCall/model/sequential_10/layer_normalization_9/zeros/packed_const_axis", "shape": [], "dtype": "int32"}, {"name": "ConstantFolding/StatefulPartitionedCall/model/sequential_11/layer_normalization_10/ones/packed_const_axis", "shape": [], "dtype": "int32"}, {"name": "ConstantFolding/StatefulPartitionedCall/model/sequential_11/layer_normalization_10/zeros/packed_const_axis", "shape": [], "dtype": "int32"}, {"name": "ConstantFolding/StatefulPartitionedCall/model/sequential_12/layer_normalization_11/ones/packed_const_axis", "shape": [], "dtype": "int32"}, {"name": "ConstantFolding/StatefulPartitionedCall/model/sequential_12/layer_normalization_11/zeros/packed_const_axis", "shape": [], "dtype": "int32"}, {"name": "ConstantFolding/StatefulPartitionedCall/model/sequential_13/layer_normalization_12/ones/packed_const_axis", "shape": [], "dtype": "int32"}, {"name": "ConstantFolding/StatefulPartitionedCall/model/sequential_13/layer_normalization_12/zeros/packed_const_axis", "shape": [], "dtype": "int32"}, {"name": "ConstantFolding/StatefulPartitionedCall/model/sequential_14/layer_normalization_13/ones/packed_const_axis", "shape": [], "dtype": "int32"}, {"name": "ConstantFolding/StatefulPartitionedCall/model/sequential_14/layer_normalization_13/zeros/packed_const_axis", "shape": [], "dtype": "int32"}]}]}